…
************************************************************
************************************************************
n_length: 16, base_filters: 8, kernel_size: 2, n_block: 2
************************************************************
************************************************************
(2000, 1, 16) Counter({1: 1000, 0: 1000})
(2000, 1, 16) Counter({0: 1000, 1: 1000})
----------------------------------------------------------------
        Layer (type)               Output Shape         Param #
================================================================
            Conv1d-1                [-1, 8, 16]              24
   MyConv1dPadSame-2                [-1, 8, 16]               0
       BatchNorm1d-3                [-1, 8, 16]              16
              ReLU-4                [-1, 8, 16]               0
            Conv1d-5                [-1, 8, 16]              24
   MyConv1dPadSame-6                [-1, 8, 16]               0
       BatchNorm1d-7                [-1, 8, 16]              16
              ReLU-8                [-1, 8, 16]               0
           Dropout-9                [-1, 8, 16]               0
           Conv1d-10                [-1, 8, 16]              24
  MyConv1dPadSame-11                [-1, 8, 16]               0
       Bottleneck-12                [-1, 8, 16]               0
      BatchNorm1d-13                [-1, 8, 16]              16
             ReLU-14                [-1, 8, 16]               0
          Dropout-15                [-1, 8, 16]               0
           Conv1d-16               [-1, 16, 16]              48
  MyConv1dPadSame-17               [-1, 16, 16]               0
      BatchNorm1d-18               [-1, 16, 16]              32
             ReLU-19               [-1, 16, 16]               0
          Dropout-20               [-1, 16, 16]               0
           Conv1d-21               [-1, 16, 16]              80
  MyConv1dPadSame-22               [-1, 16, 16]               0
       Bottleneck-23               [-1, 16, 16]               0
      BatchNorm1d-24               [-1, 16, 16]              32
             ReLU-25               [-1, 16, 16]               0
           Linear-26                    [-1, 2]              34
================================================================
Total params: 346
Trainable params: 346
Non-trainable params: 0
----------------------------------------------------------------
Input size (MB): 0.00
Forward/backward pass size (MB): 0.03
Params size (MB): 0.00
Estimated Total Size (MB): 0.04
----------------------------------------------------------------




************************************************************
************************************************************
n_length: 16, base_filters: 8, kernel_size: 2, n_block: 4
************************************************************
************************************************************
(2000, 1, 16) Counter({1: 1000, 0: 1000})
(2000, 1, 16) Counter({0: 1000, 1: 1000})
----------------------------------------------------------------
        Layer (type)               Output Shape         Param #
================================================================
            Conv1d-1                [-1, 8, 16]              24
   MyConv1dPadSame-2                [-1, 8, 16]               0
       BatchNorm1d-3                [-1, 8, 16]              16
              ReLU-4                [-1, 8, 16]               0
            Conv1d-5                [-1, 8, 16]              24
   MyConv1dPadSame-6                [-1, 8, 16]               0
       BatchNorm1d-7                [-1, 8, 16]              16
              ReLU-8                [-1, 8, 16]               0
           Dropout-9                [-1, 8, 16]               0
           Conv1d-10                [-1, 8, 16]              24
  MyConv1dPadSame-11                [-1, 8, 16]               0
       Bottleneck-12                [-1, 8, 16]               0
      BatchNorm1d-13                [-1, 8, 16]              16
             ReLU-14                [-1, 8, 16]               0
          Dropout-15                [-1, 8, 16]               0
           Conv1d-16               [-1, 16, 16]              48
  MyConv1dPadSame-17               [-1, 16, 16]               0
      BatchNorm1d-18               [-1, 16, 16]              32
             ReLU-19               [-1, 16, 16]               0
          Dropout-20               [-1, 16, 16]               0
           Conv1d-21               [-1, 16, 16]              80
  MyConv1dPadSame-22               [-1, 16, 16]               0
       Bottleneck-23               [-1, 16, 16]               0
      BatchNorm1d-24               [-1, 16, 16]              32
             ReLU-25               [-1, 16, 16]               0
          Dropout-26               [-1, 16, 16]               0
           Conv1d-27               [-1, 32, 16]             160
  MyConv1dPadSame-28               [-1, 32, 16]               0
      BatchNorm1d-29               [-1, 32, 16]              64
             ReLU-30               [-1, 32, 16]               0
          Dropout-31               [-1, 32, 16]               0
           Conv1d-32               [-1, 32, 16]             288
  MyConv1dPadSame-33               [-1, 32, 16]               0
       Bottleneck-34               [-1, 32, 16]               0
      BatchNorm1d-35               [-1, 32, 16]              64
             ReLU-36               [-1, 32, 16]               0
          Dropout-37               [-1, 32, 16]               0
           Conv1d-38               [-1, 64, 16]             576
  MyConv1dPadSame-39               [-1, 64, 16]               0
      BatchNorm1d-40               [-1, 64, 16]             128
             ReLU-41               [-1, 64, 16]               0
          Dropout-42               [-1, 64, 16]               0
           Conv1d-43               [-1, 64, 16]           1,088
  MyConv1dPadSame-44               [-1, 64, 16]               0
       Bottleneck-45               [-1, 64, 16]               0
      BatchNorm1d-46               [-1, 64, 16]             128
             ReLU-47               [-1, 64, 16]               0
           Linear-48                    [-1, 2]             130
================================================================
Total params: 2,938
Trainable params: 2,938
Non-trainable params: 0
----------------------------------------------------------------
Input size (MB): 0.00
Forward/backward pass size (MB): 0.16
Params size (MB): 0.01
Estimated Total Size (MB): 0.17
----------------------------------------------------------------




************************************************************
************************************************************
n_length: 16, base_filters: 8, kernel_size: 2, n_block: 8
************************************************************
************************************************************
(2000, 1, 16) Counter({1: 1000, 0: 1000})
(2000, 1, 16) Counter({0: 1000, 1: 1000})
----------------------------------------------------------------
        Layer (type)               Output Shape         Param #
================================================================
            Conv1d-1                [-1, 8, 16]              24
   MyConv1dPadSame-2                [-1, 8, 16]               0
       BatchNorm1d-3                [-1, 8, 16]              16
              ReLU-4                [-1, 8, 16]               0
            Conv1d-5                [-1, 8, 16]              24
   MyConv1dPadSame-6                [-1, 8, 16]               0
       BatchNorm1d-7                [-1, 8, 16]              16
              ReLU-8                [-1, 8, 16]               0
           Dropout-9                [-1, 8, 16]               0
           Conv1d-10                [-1, 8, 16]              24
  MyConv1dPadSame-11                [-1, 8, 16]               0
       Bottleneck-12                [-1, 8, 16]               0
      BatchNorm1d-13                [-1, 8, 16]              16
             ReLU-14                [-1, 8, 16]               0
          Dropout-15                [-1, 8, 16]               0
           Conv1d-16                [-1, 8, 16]              24
  MyConv1dPadSame-17                [-1, 8, 16]               0
      BatchNorm1d-18                [-1, 8, 16]              16
             ReLU-19                [-1, 8, 16]               0
          Dropout-20                [-1, 8, 16]               0
           Conv1d-21                [-1, 8, 16]              24
  MyConv1dPadSame-22                [-1, 8, 16]               0
       Bottleneck-23                [-1, 8, 16]               0
      BatchNorm1d-24                [-1, 8, 16]              16
             ReLU-25                [-1, 8, 16]               0
          Dropout-26                [-1, 8, 16]               0
           Conv1d-27               [-1, 16, 16]              48
  MyConv1dPadSame-28               [-1, 16, 16]               0
      BatchNorm1d-29               [-1, 16, 16]              32
             ReLU-30               [-1, 16, 16]               0
          Dropout-31               [-1, 16, 16]               0
           Conv1d-32               [-1, 16, 16]              80
  MyConv1dPadSame-33               [-1, 16, 16]               0
       Bottleneck-34               [-1, 16, 16]               0
      BatchNorm1d-35               [-1, 16, 16]              32
             ReLU-36               [-1, 16, 16]               0
          Dropout-37               [-1, 16, 16]               0
           Conv1d-38               [-1, 16, 16]              80
  MyConv1dPadSame-39               [-1, 16, 16]               0
      BatchNorm1d-40               [-1, 16, 16]              32
             ReLU-41               [-1, 16, 16]               0
          Dropout-42               [-1, 16, 16]               0
           Conv1d-43               [-1, 16, 16]              80
  MyConv1dPadSame-44               [-1, 16, 16]               0
       Bottleneck-45               [-1, 16, 16]               0
      BatchNorm1d-46               [-1, 16, 16]              32
             ReLU-47               [-1, 16, 16]               0
          Dropout-48               [-1, 16, 16]               0
           Conv1d-49               [-1, 32, 16]             160
  MyConv1dPadSame-50               [-1, 32, 16]               0
      BatchNorm1d-51               [-1, 32, 16]              64
             ReLU-52               [-1, 32, 16]               0
          Dropout-53               [-1, 32, 16]               0
           Conv1d-54               [-1, 32, 16]             288
  MyConv1dPadSame-55               [-1, 32, 16]               0
       Bottleneck-56               [-1, 32, 16]               0
      BatchNorm1d-57               [-1, 32, 16]              64
             ReLU-58               [-1, 32, 16]               0
          Dropout-59               [-1, 32, 16]               0
           Conv1d-60               [-1, 32, 16]             288
  MyConv1dPadSame-61               [-1, 32, 16]               0
      BatchNorm1d-62               [-1, 32, 16]              64
             ReLU-63               [-1, 32, 16]               0
          Dropout-64               [-1, 32, 16]               0
           Conv1d-65               [-1, 32, 16]             288
  MyConv1dPadSame-66               [-1, 32, 16]               0
       Bottleneck-67               [-1, 32, 16]               0
      BatchNorm1d-68               [-1, 32, 16]              64
             ReLU-69               [-1, 32, 16]               0
          Dropout-70               [-1, 32, 16]               0
           Conv1d-71               [-1, 64, 16]             576
  MyConv1dPadSame-72               [-1, 64, 16]               0
      BatchNorm1d-73               [-1, 64, 16]             128
             ReLU-74               [-1, 64, 16]               0
          Dropout-75               [-1, 64, 16]               0
           Conv1d-76               [-1, 64, 16]           1,088
  MyConv1dPadSame-77               [-1, 64, 16]               0
       Bottleneck-78               [-1, 64, 16]               0
      BatchNorm1d-79               [-1, 64, 16]             128
             ReLU-80               [-1, 64, 16]               0
          Dropout-81               [-1, 64, 16]               0
           Conv1d-82               [-1, 64, 16]           1,088
  MyConv1dPadSame-83               [-1, 64, 16]               0
      BatchNorm1d-84               [-1, 64, 16]             128
             ReLU-85               [-1, 64, 16]               0
          Dropout-86               [-1, 64, 16]               0
           Conv1d-87               [-1, 64, 16]           1,088
  MyConv1dPadSame-88               [-1, 64, 16]               0
       Bottleneck-89               [-1, 64, 16]               0
      BatchNorm1d-90               [-1, 64, 16]             128
             ReLU-91               [-1, 64, 16]               0
           Linear-92                    [-1, 2]             130
================================================================
Total params: 6,378
Trainable params: 6,378
Non-trainable params: 0
----------------------------------------------------------------
Input size (MB): 0.00
Forward/backward pass size (MB): 0.32
Params size (MB): 0.02
Estimated Total Size (MB): 0.34
----------------------------------------------------------------




************************************************************
************************************************************
n_length: 16, base_filters: 8, kernel_size: 2, n_block: 16
************************************************************
************************************************************
(2000, 1, 16) Counter({1: 1000, 0: 1000})
(2000, 1, 16) Counter({1: 1000, 0: 1000})
----------------------------------------------------------------
        Layer (type)               Output Shape         Param #
================================================================
            Conv1d-1                [-1, 8, 16]              24
   MyConv1dPadSame-2                [-1, 8, 16]               0
       BatchNorm1d-3                [-1, 8, 16]              16
              ReLU-4                [-1, 8, 16]               0
            Conv1d-5                [-1, 8, 16]              24
   MyConv1dPadSame-6                [-1, 8, 16]               0
       BatchNorm1d-7                [-1, 8, 16]              16
              ReLU-8                [-1, 8, 16]               0
           Dropout-9                [-1, 8, 16]               0
           Conv1d-10                [-1, 8, 16]              24
  MyConv1dPadSame-11                [-1, 8, 16]               0
       Bottleneck-12                [-1, 8, 16]               0
      BatchNorm1d-13                [-1, 8, 16]              16
             ReLU-14                [-1, 8, 16]               0
          Dropout-15                [-1, 8, 16]               0
           Conv1d-16                 [-1, 8, 8]              24
  MyConv1dPadSame-17                 [-1, 8, 8]               0
      BatchNorm1d-18                 [-1, 8, 8]              16
             ReLU-19                 [-1, 8, 8]               0
          Dropout-20                 [-1, 8, 8]               0
           Conv1d-21                 [-1, 8, 8]              24
  MyConv1dPadSame-22                 [-1, 8, 8]               0
        MaxPool1d-23                 [-1, 8, 8]               0
MyMaxPool1dPadSame-24                 [-1, 8, 8]               0
       Bottleneck-25                 [-1, 8, 8]               0
      BatchNorm1d-26                 [-1, 8, 8]              16
             ReLU-27                 [-1, 8, 8]               0
          Dropout-28                 [-1, 8, 8]               0
           Conv1d-29                 [-1, 8, 8]              24
  MyConv1dPadSame-30                 [-1, 8, 8]               0
      BatchNorm1d-31                 [-1, 8, 8]              16
             ReLU-32                 [-1, 8, 8]               0
          Dropout-33                 [-1, 8, 8]               0
           Conv1d-34                 [-1, 8, 8]              24
  MyConv1dPadSame-35                 [-1, 8, 8]               0
       Bottleneck-36                 [-1, 8, 8]               0
      BatchNorm1d-37                 [-1, 8, 8]              16
             ReLU-38                 [-1, 8, 8]               0
          Dropout-39                 [-1, 8, 8]               0
           Conv1d-40                 [-1, 8, 4]              24
  MyConv1dPadSame-41                 [-1, 8, 4]               0
      BatchNorm1d-42                 [-1, 8, 4]              16
             ReLU-43                 [-1, 8, 4]               0
          Dropout-44                 [-1, 8, 4]               0
           Conv1d-45                 [-1, 8, 4]              24
  MyConv1dPadSame-46                 [-1, 8, 4]               0
        MaxPool1d-47                 [-1, 8, 4]               0
MyMaxPool1dPadSame-48                 [-1, 8, 4]               0
       Bottleneck-49                 [-1, 8, 4]               0
      BatchNorm1d-50                 [-1, 8, 4]              16
             ReLU-51                 [-1, 8, 4]               0
          Dropout-52                 [-1, 8, 4]               0
           Conv1d-53                [-1, 16, 4]              48
  MyConv1dPadSame-54                [-1, 16, 4]               0
      BatchNorm1d-55                [-1, 16, 4]              32
             ReLU-56                [-1, 16, 4]               0
          Dropout-57                [-1, 16, 4]               0
           Conv1d-58                [-1, 16, 4]              80
  MyConv1dPadSame-59                [-1, 16, 4]               0
       Bottleneck-60                [-1, 16, 4]               0
      BatchNorm1d-61                [-1, 16, 4]              32
             ReLU-62                [-1, 16, 4]               0
          Dropout-63                [-1, 16, 4]               0
           Conv1d-64                [-1, 16, 2]              80
  MyConv1dPadSame-65                [-1, 16, 2]               0
      BatchNorm1d-66                [-1, 16, 2]              32
             ReLU-67                [-1, 16, 2]               0
          Dropout-68                [-1, 16, 2]               0
           Conv1d-69                [-1, 16, 2]              80
  MyConv1dPadSame-70                [-1, 16, 2]               0
        MaxPool1d-71                [-1, 16, 2]               0
MyMaxPool1dPadSame-72                [-1, 16, 2]               0
       Bottleneck-73                [-1, 16, 2]               0
      BatchNorm1d-74                [-1, 16, 2]              32
             ReLU-75                [-1, 16, 2]               0
          Dropout-76                [-1, 16, 2]               0
           Conv1d-77                [-1, 16, 2]              80
  MyConv1dPadSame-78                [-1, 16, 2]               0
      BatchNorm1d-79                [-1, 16, 2]              32
             ReLU-80                [-1, 16, 2]               0
          Dropout-81                [-1, 16, 2]               0
           Conv1d-82                [-1, 16, 2]              80
  MyConv1dPadSame-83                [-1, 16, 2]               0
       Bottleneck-84                [-1, 16, 2]               0
      BatchNorm1d-85                [-1, 16, 2]              32
             ReLU-86                [-1, 16, 2]               0
          Dropout-87                [-1, 16, 2]               0
           Conv1d-88                [-1, 16, 1]              80
  MyConv1dPadSame-89                [-1, 16, 1]               0
      BatchNorm1d-90                [-1, 16, 1]              32
             ReLU-91                [-1, 16, 1]               0
          Dropout-92                [-1, 16, 1]               0
           Conv1d-93                [-1, 16, 1]              80
  MyConv1dPadSame-94                [-1, 16, 1]               0
        MaxPool1d-95                [-1, 16, 1]               0
MyMaxPool1dPadSame-96                [-1, 16, 1]               0
       Bottleneck-97                [-1, 16, 1]               0
      BatchNorm1d-98                [-1, 16, 1]              32
             ReLU-99                [-1, 16, 1]               0
         Dropout-100                [-1, 16, 1]               0
          Conv1d-101                [-1, 32, 1]             160
 MyConv1dPadSame-102                [-1, 32, 1]               0
     BatchNorm1d-103                [-1, 32, 1]              64
            ReLU-104                [-1, 32, 1]               0
         Dropout-105                [-1, 32, 1]               0
          Conv1d-106                [-1, 32, 1]             288
 MyConv1dPadSame-107                [-1, 32, 1]               0
      Bottleneck-108                [-1, 32, 1]               0
     BatchNorm1d-109                [-1, 32, 1]              64
            ReLU-110                [-1, 32, 1]               0
         Dropout-111                [-1, 32, 1]               0
          Conv1d-112                [-1, 32, 1]             288
 MyConv1dPadSame-113                [-1, 32, 1]               0
     BatchNorm1d-114                [-1, 32, 1]              64
            ReLU-115                [-1, 32, 1]               0
         Dropout-116                [-1, 32, 1]               0
          Conv1d-117                [-1, 32, 1]             288
 MyConv1dPadSame-118                [-1, 32, 1]               0
       MaxPool1d-119                [-1, 32, 1]               0
MyMaxPool1dPadSame-120                [-1, 32, 1]               0
      Bottleneck-121                [-1, 32, 1]               0
     BatchNorm1d-122                [-1, 32, 1]              64
            ReLU-123                [-1, 32, 1]               0
         Dropout-124                [-1, 32, 1]               0
          Conv1d-125                [-1, 32, 1]             288
 MyConv1dPadSame-126                [-1, 32, 1]               0
     BatchNorm1d-127                [-1, 32, 1]              64
            ReLU-128                [-1, 32, 1]               0
         Dropout-129                [-1, 32, 1]               0
          Conv1d-130                [-1, 32, 1]             288
 MyConv1dPadSame-131                [-1, 32, 1]               0
      Bottleneck-132                [-1, 32, 1]               0
     BatchNorm1d-133                [-1, 32, 1]              64
            ReLU-134                [-1, 32, 1]               0
         Dropout-135                [-1, 32, 1]               0
          Conv1d-136                [-1, 32, 1]             288
 MyConv1dPadSame-137                [-1, 32, 1]               0
     BatchNorm1d-138                [-1, 32, 1]              64
            ReLU-139                [-1, 32, 1]               0
         Dropout-140                [-1, 32, 1]               0
          Conv1d-141                [-1, 32, 1]             288
 MyConv1dPadSame-142                [-1, 32, 1]               0
       MaxPool1d-143                [-1, 32, 1]               0
MyMaxPool1dPadSame-144                [-1, 32, 1]               0
      Bottleneck-145                [-1, 32, 1]               0
     BatchNorm1d-146                [-1, 32, 1]              64
            ReLU-147                [-1, 32, 1]               0
         Dropout-148                [-1, 32, 1]               0
          Conv1d-149                [-1, 64, 1]             576
 MyConv1dPadSame-150                [-1, 64, 1]               0
     BatchNorm1d-151                [-1, 64, 1]             128
            ReLU-152                [-1, 64, 1]               0
         Dropout-153                [-1, 64, 1]               0
          Conv1d-154                [-1, 64, 1]           1,088
 MyConv1dPadSame-155                [-1, 64, 1]               0
      Bottleneck-156                [-1, 64, 1]               0
     BatchNorm1d-157                [-1, 64, 1]             128
            ReLU-158                [-1, 64, 1]               0
         Dropout-159                [-1, 64, 1]               0
          Conv1d-160                [-1, 64, 1]           1,088
 MyConv1dPadSame-161                [-1, 64, 1]               0
     BatchNorm1d-162                [-1, 64, 1]             128
            ReLU-163                [-1, 64, 1]               0
         Dropout-164                [-1, 64, 1]               0
          Conv1d-165                [-1, 64, 1]           1,088
 MyConv1dPadSame-166                [-1, 64, 1]               0
       MaxPool1d-167                [-1, 64, 1]               0
MyMaxPool1dPadSame-168                [-1, 64, 1]               0
      Bottleneck-169                [-1, 64, 1]               0
     BatchNorm1d-170                [-1, 64, 1]             128
            ReLU-171                [-1, 64, 1]               0
         Dropout-172                [-1, 64, 1]               0
          Conv1d-173                [-1, 64, 1]           1,088
 MyConv1dPadSame-174                [-1, 64, 1]               0
     BatchNorm1d-175                [-1, 64, 1]             128
            ReLU-176                [-1, 64, 1]               0
         Dropout-177                [-1, 64, 1]               0
          Conv1d-178                [-1, 64, 1]           1,088
 MyConv1dPadSame-179                [-1, 64, 1]               0
      Bottleneck-180                [-1, 64, 1]               0
     BatchNorm1d-181                [-1, 64, 1]             128
            ReLU-182                [-1, 64, 1]               0
         Dropout-183                [-1, 64, 1]               0
          Conv1d-184                [-1, 64, 1]           1,088
 MyConv1dPadSame-185                [-1, 64, 1]               0
     BatchNorm1d-186                [-1, 64, 1]             128
            ReLU-187                [-1, 64, 1]               0
         Dropout-188                [-1, 64, 1]               0
          Conv1d-189                [-1, 64, 1]           1,088
 MyConv1dPadSame-190                [-1, 64, 1]               0
       MaxPool1d-191                [-1, 64, 1]               0
MyMaxPool1dPadSame-192                [-1, 64, 1]               0
      Bottleneck-193                [-1, 64, 1]               0
     BatchNorm1d-194                [-1, 64, 1]             128
            ReLU-195                [-1, 64, 1]               0
          Linear-196                    [-1, 2]             130
================================================================
Total params: 13,258
Trainable params: 13,258
Non-trainable params: 0
----------------------------------------------------------------
Input size (MB): 0.00
Forward/backward pass size (MB): 0.08
Params size (MB): 0.05
Estimated Total Size (MB): 0.13
----------------------------------------------------------------




************************************************************
************************************************************
n_length: 16, base_filters: 8, kernel_size: 4, n_block: 2
************************************************************
************************************************************
(2000, 1, 16) Counter({1: 1000, 0: 1000})
(2000, 1, 16) Counter({0: 1000, 1: 1000})
----------------------------------------------------------------
        Layer (type)               Output Shape         Param #
================================================================
            Conv1d-1                [-1, 8, 16]              40
   MyConv1dPadSame-2                [-1, 8, 16]               0
       BatchNorm1d-3                [-1, 8, 16]              16
              ReLU-4                [-1, 8, 16]               0
            Conv1d-5                [-1, 8, 16]              40
   MyConv1dPadSame-6                [-1, 8, 16]               0
       BatchNorm1d-7                [-1, 8, 16]              16
              ReLU-8                [-1, 8, 16]               0
           Dropout-9                [-1, 8, 16]               0
           Conv1d-10                [-1, 8, 16]              40
  MyConv1dPadSame-11                [-1, 8, 16]               0
       Bottleneck-12                [-1, 8, 16]               0
      BatchNorm1d-13                [-1, 8, 16]              16
             ReLU-14                [-1, 8, 16]               0
          Dropout-15                [-1, 8, 16]               0
           Conv1d-16               [-1, 16, 16]              80
  MyConv1dPadSame-17               [-1, 16, 16]               0
      BatchNorm1d-18               [-1, 16, 16]              32
             ReLU-19               [-1, 16, 16]               0
          Dropout-20               [-1, 16, 16]               0
           Conv1d-21               [-1, 16, 16]             144
  MyConv1dPadSame-22               [-1, 16, 16]               0
       Bottleneck-23               [-1, 16, 16]               0
      BatchNorm1d-24               [-1, 16, 16]              32
             ReLU-25               [-1, 16, 16]               0
           Linear-26                    [-1, 2]              34
================================================================
Total params: 490
Trainable params: 490
Non-trainable params: 0
----------------------------------------------------------------
Input size (MB): 0.00
Forward/backward pass size (MB): 0.03
Params size (MB): 0.00
Estimated Total Size (MB): 0.04
----------------------------------------------------------------




************************************************************
************************************************************
n_length: 16, base_filters: 8, kernel_size: 4, n_block: 4
************************************************************
************************************************************
(2000, 1, 16) Counter({1: 1000, 0: 1000})
(2000, 1, 16) Counter({1: 1000, 0: 1000})
----------------------------------------------------------------
        Layer (type)               Output Shape         Param #
================================================================
            Conv1d-1                [-1, 8, 16]              40
   MyConv1dPadSame-2                [-1, 8, 16]               0
       BatchNorm1d-3                [-1, 8, 16]              16
              ReLU-4                [-1, 8, 16]               0
            Conv1d-5                [-1, 8, 16]              40
   MyConv1dPadSame-6                [-1, 8, 16]               0
       BatchNorm1d-7                [-1, 8, 16]              16
              ReLU-8                [-1, 8, 16]               0
           Dropout-9                [-1, 8, 16]               0
           Conv1d-10                [-1, 8, 16]              40
  MyConv1dPadSame-11                [-1, 8, 16]               0
       Bottleneck-12                [-1, 8, 16]               0
      BatchNorm1d-13                [-1, 8, 16]              16
             ReLU-14                [-1, 8, 16]               0
          Dropout-15                [-1, 8, 16]               0
           Conv1d-16               [-1, 16, 16]              80
  MyConv1dPadSame-17               [-1, 16, 16]               0
      BatchNorm1d-18               [-1, 16, 16]              32
             ReLU-19               [-1, 16, 16]               0
          Dropout-20               [-1, 16, 16]               0
           Conv1d-21               [-1, 16, 16]             144
  MyConv1dPadSame-22               [-1, 16, 16]               0
       Bottleneck-23               [-1, 16, 16]               0
      BatchNorm1d-24               [-1, 16, 16]              32
             ReLU-25               [-1, 16, 16]               0
          Dropout-26               [-1, 16, 16]               0
           Conv1d-27               [-1, 32, 16]             288
  MyConv1dPadSame-28               [-1, 32, 16]               0
      BatchNorm1d-29               [-1, 32, 16]              64
             ReLU-30               [-1, 32, 16]               0
          Dropout-31               [-1, 32, 16]               0
           Conv1d-32               [-1, 32, 16]             544
  MyConv1dPadSame-33               [-1, 32, 16]               0
       Bottleneck-34               [-1, 32, 16]               0
      BatchNorm1d-35               [-1, 32, 16]              64
             ReLU-36               [-1, 32, 16]               0
          Dropout-37               [-1, 32, 16]               0
           Conv1d-38               [-1, 64, 16]           1,088
  MyConv1dPadSame-39               [-1, 64, 16]               0
      BatchNorm1d-40               [-1, 64, 16]             128
             ReLU-41               [-1, 64, 16]               0
          Dropout-42               [-1, 64, 16]               0
           Conv1d-43               [-1, 64, 16]           2,112
  MyConv1dPadSame-44               [-1, 64, 16]               0
       Bottleneck-45               [-1, 64, 16]               0
      BatchNorm1d-46               [-1, 64, 16]             128
             ReLU-47               [-1, 64, 16]               0
           Linear-48                    [-1, 2]             130
================================================================
Total params: 5,002
Trainable params: 5,002
Non-trainable params: 0
----------------------------------------------------------------
Input size (MB): 0.00
Forward/backward pass size (MB): 0.16
Params size (MB): 0.02
Estimated Total Size (MB): 0.18
----------------------------------------------------------------




************************************************************
************************************************************
n_length: 16, base_filters: 8, kernel_size: 4, n_block: 8
************************************************************
************************************************************
(2000, 1, 16) Counter({1: 1000, 0: 1000})
(2000, 1, 16) Counter({1: 1000, 0: 1000})
----------------------------------------------------------------
        Layer (type)               Output Shape         Param #
================================================================
            Conv1d-1                [-1, 8, 16]              40
   MyConv1dPadSame-2                [-1, 8, 16]               0
       BatchNorm1d-3                [-1, 8, 16]              16
              ReLU-4                [-1, 8, 16]               0
            Conv1d-5                [-1, 8, 16]              40
   MyConv1dPadSame-6                [-1, 8, 16]               0
       BatchNorm1d-7                [-1, 8, 16]              16
              ReLU-8                [-1, 8, 16]               0
           Dropout-9                [-1, 8, 16]               0
           Conv1d-10                [-1, 8, 16]              40
  MyConv1dPadSame-11                [-1, 8, 16]               0
       Bottleneck-12                [-1, 8, 16]               0
      BatchNorm1d-13                [-1, 8, 16]              16
             ReLU-14                [-1, 8, 16]               0
          Dropout-15                [-1, 8, 16]               0
           Conv1d-16                [-1, 8, 16]              40
  MyConv1dPadSame-17                [-1, 8, 16]               0
      BatchNorm1d-18                [-1, 8, 16]              16
             ReLU-19                [-1, 8, 16]               0
          Dropout-20                [-1, 8, 16]               0
           Conv1d-21                [-1, 8, 16]              40
  MyConv1dPadSame-22                [-1, 8, 16]               0
       Bottleneck-23                [-1, 8, 16]               0
      BatchNorm1d-24                [-1, 8, 16]              16
             ReLU-25                [-1, 8, 16]               0
          Dropout-26                [-1, 8, 16]               0
           Conv1d-27               [-1, 16, 16]              80
  MyConv1dPadSame-28               [-1, 16, 16]               0
      BatchNorm1d-29               [-1, 16, 16]              32
             ReLU-30               [-1, 16, 16]               0
          Dropout-31               [-1, 16, 16]               0
           Conv1d-32               [-1, 16, 16]             144
  MyConv1dPadSame-33               [-1, 16, 16]               0
       Bottleneck-34               [-1, 16, 16]               0
      BatchNorm1d-35               [-1, 16, 16]              32
             ReLU-36               [-1, 16, 16]               0
          Dropout-37               [-1, 16, 16]               0
           Conv1d-38               [-1, 16, 16]             144
  MyConv1dPadSame-39               [-1, 16, 16]               0
      BatchNorm1d-40               [-1, 16, 16]              32
             ReLU-41               [-1, 16, 16]               0
          Dropout-42               [-1, 16, 16]               0
           Conv1d-43               [-1, 16, 16]             144
  MyConv1dPadSame-44               [-1, 16, 16]               0
       Bottleneck-45               [-1, 16, 16]               0
      BatchNorm1d-46               [-1, 16, 16]              32
             ReLU-47               [-1, 16, 16]               0
          Dropout-48               [-1, 16, 16]               0
           Conv1d-49               [-1, 32, 16]             288
  MyConv1dPadSame-50               [-1, 32, 16]               0
      BatchNorm1d-51               [-1, 32, 16]              64
             ReLU-52               [-1, 32, 16]               0
          Dropout-53               [-1, 32, 16]               0
           Conv1d-54               [-1, 32, 16]             544
  MyConv1dPadSame-55               [-1, 32, 16]               0
       Bottleneck-56               [-1, 32, 16]               0
      BatchNorm1d-57               [-1, 32, 16]              64
             ReLU-58               [-1, 32, 16]               0
          Dropout-59               [-1, 32, 16]               0
           Conv1d-60               [-1, 32, 16]             544
  MyConv1dPadSame-61               [-1, 32, 16]               0
      BatchNorm1d-62               [-1, 32, 16]              64
             ReLU-63               [-1, 32, 16]               0
          Dropout-64               [-1, 32, 16]               0
           Conv1d-65               [-1, 32, 16]             544
  MyConv1dPadSame-66               [-1, 32, 16]               0
       Bottleneck-67               [-1, 32, 16]               0
      BatchNorm1d-68               [-1, 32, 16]              64
             ReLU-69               [-1, 32, 16]               0
          Dropout-70               [-1, 32, 16]               0
           Conv1d-71               [-1, 64, 16]           1,088
  MyConv1dPadSame-72               [-1, 64, 16]               0
      BatchNorm1d-73               [-1, 64, 16]             128
             ReLU-74               [-1, 64, 16]               0
          Dropout-75               [-1, 64, 16]               0
           Conv1d-76               [-1, 64, 16]           2,112
  MyConv1dPadSame-77               [-1, 64, 16]               0
       Bottleneck-78               [-1, 64, 16]               0
      BatchNorm1d-79               [-1, 64, 16]             128
             ReLU-80               [-1, 64, 16]               0
          Dropout-81               [-1, 64, 16]               0
           Conv1d-82               [-1, 64, 16]           2,112
  MyConv1dPadSame-83               [-1, 64, 16]               0
      BatchNorm1d-84               [-1, 64, 16]             128
             ReLU-85               [-1, 64, 16]               0
          Dropout-86               [-1, 64, 16]               0
           Conv1d-87               [-1, 64, 16]           2,112
  MyConv1dPadSame-88               [-1, 64, 16]               0
       Bottleneck-89               [-1, 64, 16]               0
      BatchNorm1d-90               [-1, 64, 16]             128
             ReLU-91               [-1, 64, 16]               0
           Linear-92                    [-1, 2]             130
================================================================
Total params: 11,162
Trainable params: 11,162
Non-trainable params: 0
----------------------------------------------------------------
Input size (MB): 0.00
Forward/backward pass size (MB): 0.32
Params size (MB): 0.04
Estimated Total Size (MB): 0.36
----------------------------------------------------------------




************************************************************
************************************************************
n_length: 16, base_filters: 8, kernel_size: 4, n_block: 16
************************************************************
************************************************************
(2000, 1, 16) Counter({0: 1000, 1: 1000})
(2000, 1, 16) Counter({0: 1000, 1: 1000})
----------------------------------------------------------------
        Layer (type)               Output Shape         Param #
================================================================
            Conv1d-1                [-1, 8, 16]              40
   MyConv1dPadSame-2                [-1, 8, 16]               0
       BatchNorm1d-3                [-1, 8, 16]              16
              ReLU-4                [-1, 8, 16]               0
            Conv1d-5                [-1, 8, 16]              40
   MyConv1dPadSame-6                [-1, 8, 16]               0
       BatchNorm1d-7                [-1, 8, 16]              16
              ReLU-8                [-1, 8, 16]               0
           Dropout-9                [-1, 8, 16]               0
           Conv1d-10                [-1, 8, 16]              40
  MyConv1dPadSame-11                [-1, 8, 16]               0
       Bottleneck-12                [-1, 8, 16]               0
      BatchNorm1d-13                [-1, 8, 16]              16
             ReLU-14                [-1, 8, 16]               0
          Dropout-15                [-1, 8, 16]               0
           Conv1d-16                 [-1, 8, 8]              40
  MyConv1dPadSame-17                 [-1, 8, 8]               0
      BatchNorm1d-18                 [-1, 8, 8]              16
             ReLU-19                 [-1, 8, 8]               0
          Dropout-20                 [-1, 8, 8]               0
           Conv1d-21                 [-1, 8, 8]              40
  MyConv1dPadSame-22                 [-1, 8, 8]               0
        MaxPool1d-23                 [-1, 8, 8]               0
MyMaxPool1dPadSame-24                 [-1, 8, 8]               0
       Bottleneck-25                 [-1, 8, 8]               0
      BatchNorm1d-26                 [-1, 8, 8]              16
             ReLU-27                 [-1, 8, 8]               0
          Dropout-28                 [-1, 8, 8]               0
           Conv1d-29                 [-1, 8, 8]              40
  MyConv1dPadSame-30                 [-1, 8, 8]               0
      BatchNorm1d-31                 [-1, 8, 8]              16
             ReLU-32                 [-1, 8, 8]               0
          Dropout-33                 [-1, 8, 8]               0
           Conv1d-34                 [-1, 8, 8]              40
  MyConv1dPadSame-35                 [-1, 8, 8]               0
       Bottleneck-36                 [-1, 8, 8]               0
      BatchNorm1d-37                 [-1, 8, 8]              16
             ReLU-38                 [-1, 8, 8]               0
          Dropout-39                 [-1, 8, 8]               0
           Conv1d-40                 [-1, 8, 4]              40
  MyConv1dPadSame-41                 [-1, 8, 4]               0
      BatchNorm1d-42                 [-1, 8, 4]              16
             ReLU-43                 [-1, 8, 4]               0
          Dropout-44                 [-1, 8, 4]               0
           Conv1d-45                 [-1, 8, 4]              40
  MyConv1dPadSame-46                 [-1, 8, 4]               0
        MaxPool1d-47                 [-1, 8, 4]               0
MyMaxPool1dPadSame-48                 [-1, 8, 4]               0
       Bottleneck-49                 [-1, 8, 4]               0
      BatchNorm1d-50                 [-1, 8, 4]              16
             ReLU-51                 [-1, 8, 4]               0
          Dropout-52                 [-1, 8, 4]               0
           Conv1d-53                [-1, 16, 4]              80
  MyConv1dPadSame-54                [-1, 16, 4]               0
      BatchNorm1d-55                [-1, 16, 4]              32
             ReLU-56                [-1, 16, 4]               0
          Dropout-57                [-1, 16, 4]               0
           Conv1d-58                [-1, 16, 4]             144
  MyConv1dPadSame-59                [-1, 16, 4]               0
       Bottleneck-60                [-1, 16, 4]               0
      BatchNorm1d-61                [-1, 16, 4]              32
             ReLU-62                [-1, 16, 4]               0
          Dropout-63                [-1, 16, 4]               0
           Conv1d-64                [-1, 16, 2]             144
  MyConv1dPadSame-65                [-1, 16, 2]               0
      BatchNorm1d-66                [-1, 16, 2]              32
             ReLU-67                [-1, 16, 2]               0
          Dropout-68                [-1, 16, 2]               0
           Conv1d-69                [-1, 16, 2]             144
  MyConv1dPadSame-70                [-1, 16, 2]               0
        MaxPool1d-71                [-1, 16, 2]               0
MyMaxPool1dPadSame-72                [-1, 16, 2]               0
       Bottleneck-73                [-1, 16, 2]               0
      BatchNorm1d-74                [-1, 16, 2]              32
             ReLU-75                [-1, 16, 2]               0
          Dropout-76                [-1, 16, 2]               0
           Conv1d-77                [-1, 16, 2]             144
  MyConv1dPadSame-78                [-1, 16, 2]               0
      BatchNorm1d-79                [-1, 16, 2]              32
             ReLU-80                [-1, 16, 2]               0
          Dropout-81                [-1, 16, 2]               0
           Conv1d-82                [-1, 16, 2]             144
  MyConv1dPadSame-83                [-1, 16, 2]               0
       Bottleneck-84                [-1, 16, 2]               0
      BatchNorm1d-85                [-1, 16, 2]              32
             ReLU-86                [-1, 16, 2]               0
          Dropout-87                [-1, 16, 2]               0
           Conv1d-88                [-1, 16, 1]             144
  MyConv1dPadSame-89                [-1, 16, 1]               0
      BatchNorm1d-90                [-1, 16, 1]              32
             ReLU-91                [-1, 16, 1]               0
          Dropout-92                [-1, 16, 1]               0
           Conv1d-93                [-1, 16, 1]             144
  MyConv1dPadSame-94                [-1, 16, 1]               0
        MaxPool1d-95                [-1, 16, 1]               0
MyMaxPool1dPadSame-96                [-1, 16, 1]               0
       Bottleneck-97                [-1, 16, 1]               0
      BatchNorm1d-98                [-1, 16, 1]              32
             ReLU-99                [-1, 16, 1]               0
         Dropout-100                [-1, 16, 1]               0
          Conv1d-101                [-1, 32, 1]             288
 MyConv1dPadSame-102                [-1, 32, 1]               0
     BatchNorm1d-103                [-1, 32, 1]              64
            ReLU-104                [-1, 32, 1]               0
         Dropout-105                [-1, 32, 1]               0
          Conv1d-106                [-1, 32, 1]             544
 MyConv1dPadSame-107                [-1, 32, 1]               0
      Bottleneck-108                [-1, 32, 1]               0
     BatchNorm1d-109                [-1, 32, 1]              64
            ReLU-110                [-1, 32, 1]               0
         Dropout-111                [-1, 32, 1]               0
          Conv1d-112                [-1, 32, 1]             544
 MyConv1dPadSame-113                [-1, 32, 1]               0
     BatchNorm1d-114                [-1, 32, 1]              64
            ReLU-115                [-1, 32, 1]               0
         Dropout-116                [-1, 32, 1]               0
          Conv1d-117                [-1, 32, 1]             544
 MyConv1dPadSame-118                [-1, 32, 1]               0
       MaxPool1d-119                [-1, 32, 1]               0
MyMaxPool1dPadSame-120                [-1, 32, 1]               0
      Bottleneck-121                [-1, 32, 1]               0
     BatchNorm1d-122                [-1, 32, 1]              64
            ReLU-123                [-1, 32, 1]               0
         Dropout-124                [-1, 32, 1]               0
          Conv1d-125                [-1, 32, 1]             544
 MyConv1dPadSame-126                [-1, 32, 1]               0
     BatchNorm1d-127                [-1, 32, 1]              64
            ReLU-128                [-1, 32, 1]               0
         Dropout-129                [-1, 32, 1]               0
          Conv1d-130                [-1, 32, 1]             544
 MyConv1dPadSame-131                [-1, 32, 1]               0
      Bottleneck-132                [-1, 32, 1]               0
     BatchNorm1d-133                [-1, 32, 1]              64
            ReLU-134                [-1, 32, 1]               0
         Dropout-135                [-1, 32, 1]               0
          Conv1d-136                [-1, 32, 1]             544
 MyConv1dPadSame-137                [-1, 32, 1]               0
     BatchNorm1d-138                [-1, 32, 1]              64
            ReLU-139                [-1, 32, 1]               0
         Dropout-140                [-1, 32, 1]               0
          Conv1d-141                [-1, 32, 1]             544
 MyConv1dPadSame-142                [-1, 32, 1]               0
       MaxPool1d-143                [-1, 32, 1]               0
MyMaxPool1dPadSame-144                [-1, 32, 1]               0
      Bottleneck-145                [-1, 32, 1]               0
     BatchNorm1d-146                [-1, 32, 1]              64
            ReLU-147                [-1, 32, 1]               0
         Dropout-148                [-1, 32, 1]               0
          Conv1d-149                [-1, 64, 1]           1,088
 MyConv1dPadSame-150                [-1, 64, 1]               0
     BatchNorm1d-151                [-1, 64, 1]             128
            ReLU-152                [-1, 64, 1]               0
         Dropout-153                [-1, 64, 1]               0
          Conv1d-154                [-1, 64, 1]           2,112
 MyConv1dPadSame-155                [-1, 64, 1]               0
      Bottleneck-156                [-1, 64, 1]               0
     BatchNorm1d-157                [-1, 64, 1]             128
            ReLU-158                [-1, 64, 1]               0
         Dropout-159                [-1, 64, 1]               0
          Conv1d-160                [-1, 64, 1]           2,112
 MyConv1dPadSame-161                [-1, 64, 1]               0
     BatchNorm1d-162                [-1, 64, 1]             128
            ReLU-163                [-1, 64, 1]               0
         Dropout-164                [-1, 64, 1]               0
          Conv1d-165                [-1, 64, 1]           2,112
 MyConv1dPadSame-166                [-1, 64, 1]               0
       MaxPool1d-167                [-1, 64, 1]               0
MyMaxPool1dPadSame-168                [-1, 64, 1]               0
      Bottleneck-169                [-1, 64, 1]               0
     BatchNorm1d-170                [-1, 64, 1]             128
            ReLU-171                [-1, 64, 1]               0
         Dropout-172                [-1, 64, 1]               0
          Conv1d-173                [-1, 64, 1]           2,112
 MyConv1dPadSame-174                [-1, 64, 1]               0
     BatchNorm1d-175                [-1, 64, 1]             128
            ReLU-176                [-1, 64, 1]               0
         Dropout-177                [-1, 64, 1]               0
          Conv1d-178                [-1, 64, 1]           2,112
 MyConv1dPadSame-179                [-1, 64, 1]               0
      Bottleneck-180                [-1, 64, 1]               0
     BatchNorm1d-181                [-1, 64, 1]             128
            ReLU-182                [-1, 64, 1]               0
         Dropout-183                [-1, 64, 1]               0
          Conv1d-184                [-1, 64, 1]           2,112
 MyConv1dPadSame-185                [-1, 64, 1]               0
     BatchNorm1d-186                [-1, 64, 1]             128
            ReLU-187                [-1, 64, 1]               0
         Dropout-188                [-1, 64, 1]               0
          Conv1d-189                [-1, 64, 1]           2,112
 MyConv1dPadSame-190                [-1, 64, 1]               0
       MaxPool1d-191                [-1, 64, 1]               0
MyMaxPool1dPadSame-192                [-1, 64, 1]               0
      Bottleneck-193                [-1, 64, 1]               0
     BatchNorm1d-194                [-1, 64, 1]             128
            ReLU-195                [-1, 64, 1]               0
          Linear-196                    [-1, 2]             130
================================================================
Total params: 23,482
Trainable params: 23,482
Non-trainable params: 0
----------------------------------------------------------------
Input size (MB): 0.00
Forward/backward pass size (MB): 0.08
Params size (MB): 0.09
Estimated Total Size (MB): 0.17
----------------------------------------------------------------




************************************************************
************************************************************
n_length: 16, base_filters: 8, kernel_size: 8, n_block: 2
************************************************************
************************************************************
(2000, 1, 16) Counter({1: 1000, 0: 1000})
(2000, 1, 16) Counter({1: 1000, 0: 1000})
----------------------------------------------------------------
        Layer (type)               Output Shape         Param #
================================================================
            Conv1d-1                [-1, 8, 16]              72
   MyConv1dPadSame-2                [-1, 8, 16]               0
       BatchNorm1d-3                [-1, 8, 16]              16
              ReLU-4                [-1, 8, 16]               0
            Conv1d-5                [-1, 8, 16]              72
   MyConv1dPadSame-6                [-1, 8, 16]               0
       BatchNorm1d-7                [-1, 8, 16]              16
              ReLU-8                [-1, 8, 16]               0
           Dropout-9                [-1, 8, 16]               0
           Conv1d-10                [-1, 8, 16]              72
  MyConv1dPadSame-11                [-1, 8, 16]               0
       Bottleneck-12                [-1, 8, 16]               0
      BatchNorm1d-13                [-1, 8, 16]              16
             ReLU-14                [-1, 8, 16]               0
          Dropout-15                [-1, 8, 16]               0
           Conv1d-16               [-1, 16, 16]             144
  MyConv1dPadSame-17               [-1, 16, 16]               0
      BatchNorm1d-18               [-1, 16, 16]              32
             ReLU-19               [-1, 16, 16]               0
          Dropout-20               [-1, 16, 16]               0
           Conv1d-21               [-1, 16, 16]             272
  MyConv1dPadSame-22               [-1, 16, 16]               0
       Bottleneck-23               [-1, 16, 16]               0
      BatchNorm1d-24               [-1, 16, 16]              32
             ReLU-25               [-1, 16, 16]               0
           Linear-26                    [-1, 2]              34
================================================================
Total params: 778
Trainable params: 778
Non-trainable params: 0
----------------------------------------------------------------
Input size (MB): 0.00
Forward/backward pass size (MB): 0.03
Params size (MB): 0.00
Estimated Total Size (MB): 0.04
----------------------------------------------------------------




************************************************************
************************************************************
n_length: 16, base_filters: 8, kernel_size: 8, n_block: 4
************************************************************
************************************************************
(2000, 1, 16) Counter({1: 1000, 0: 1000})
(2000, 1, 16) Counter({0: 1000, 1: 1000})
----------------------------------------------------------------
        Layer (type)               Output Shape         Param #
================================================================
            Conv1d-1                [-1, 8, 16]              72
   MyConv1dPadSame-2                [-1, 8, 16]               0
       BatchNorm1d-3                [-1, 8, 16]              16
              ReLU-4                [-1, 8, 16]               0
            Conv1d-5                [-1, 8, 16]              72
   MyConv1dPadSame-6                [-1, 8, 16]               0
       BatchNorm1d-7                [-1, 8, 16]              16
              ReLU-8                [-1, 8, 16]               0
           Dropout-9                [-1, 8, 16]               0
           Conv1d-10                [-1, 8, 16]              72
  MyConv1dPadSame-11                [-1, 8, 16]               0
       Bottleneck-12                [-1, 8, 16]               0
      BatchNorm1d-13                [-1, 8, 16]              16
             ReLU-14                [-1, 8, 16]               0
          Dropout-15                [-1, 8, 16]               0
           Conv1d-16               [-1, 16, 16]             144
  MyConv1dPadSame-17               [-1, 16, 16]               0
      BatchNorm1d-18               [-1, 16, 16]              32
             ReLU-19               [-1, 16, 16]               0
          Dropout-20               [-1, 16, 16]               0
           Conv1d-21               [-1, 16, 16]             272
  MyConv1dPadSame-22               [-1, 16, 16]               0
       Bottleneck-23               [-1, 16, 16]               0
      BatchNorm1d-24               [-1, 16, 16]              32
             ReLU-25               [-1, 16, 16]               0
          Dropout-26               [-1, 16, 16]               0
           Conv1d-27               [-1, 32, 16]             544
  MyConv1dPadSame-28               [-1, 32, 16]               0
      BatchNorm1d-29               [-1, 32, 16]              64
             ReLU-30               [-1, 32, 16]               0
          Dropout-31               [-1, 32, 16]               0
           Conv1d-32               [-1, 32, 16]           1,056
  MyConv1dPadSame-33               [-1, 32, 16]               0
       Bottleneck-34               [-1, 32, 16]               0
      BatchNorm1d-35               [-1, 32, 16]              64
             ReLU-36               [-1, 32, 16]               0
          Dropout-37               [-1, 32, 16]               0
           Conv1d-38               [-1, 64, 16]           2,112
  MyConv1dPadSame-39               [-1, 64, 16]               0
      BatchNorm1d-40               [-1, 64, 16]             128
             ReLU-41               [-1, 64, 16]               0
          Dropout-42               [-1, 64, 16]               0
           Conv1d-43               [-1, 64, 16]           4,160
  MyConv1dPadSame-44               [-1, 64, 16]               0
       Bottleneck-45               [-1, 64, 16]               0
      BatchNorm1d-46               [-1, 64, 16]             128
             ReLU-47               [-1, 64, 16]               0
           Linear-48                    [-1, 2]             130
================================================================
Total params: 9,130
Trainable params: 9,130
Non-trainable params: 0
----------------------------------------------------------------
Input size (MB): 0.00
Forward/backward pass size (MB): 0.16
Params size (MB): 0.03
Estimated Total Size (MB): 0.19
----------------------------------------------------------------




************************************************************
************************************************************
n_length: 16, base_filters: 8, kernel_size: 8, n_block: 8
************************************************************
************************************************************
(2000, 1, 16) Counter({1: 1000, 0: 1000})
(2000, 1, 16) Counter({1: 1000, 0: 1000})
----------------------------------------------------------------
        Layer (type)               Output Shape         Param #
================================================================
            Conv1d-1                [-1, 8, 16]              72
   MyConv1dPadSame-2                [-1, 8, 16]               0
       BatchNorm1d-3                [-1, 8, 16]              16
              ReLU-4                [-1, 8, 16]               0
            Conv1d-5                [-1, 8, 16]              72
   MyConv1dPadSame-6                [-1, 8, 16]               0
       BatchNorm1d-7                [-1, 8, 16]              16
              ReLU-8                [-1, 8, 16]               0
           Dropout-9                [-1, 8, 16]               0
           Conv1d-10                [-1, 8, 16]              72
  MyConv1dPadSame-11                [-1, 8, 16]               0
       Bottleneck-12                [-1, 8, 16]               0
      BatchNorm1d-13                [-1, 8, 16]              16
             ReLU-14                [-1, 8, 16]               0
          Dropout-15                [-1, 8, 16]               0
           Conv1d-16                [-1, 8, 16]              72
  MyConv1dPadSame-17                [-1, 8, 16]               0
      BatchNorm1d-18                [-1, 8, 16]              16
             ReLU-19                [-1, 8, 16]               0
          Dropout-20                [-1, 8, 16]               0
           Conv1d-21                [-1, 8, 16]              72
  MyConv1dPadSame-22                [-1, 8, 16]               0
       Bottleneck-23                [-1, 8, 16]               0
      BatchNorm1d-24                [-1, 8, 16]              16
             ReLU-25                [-1, 8, 16]               0
          Dropout-26                [-1, 8, 16]               0
           Conv1d-27               [-1, 16, 16]             144
  MyConv1dPadSame-28               [-1, 16, 16]               0
      BatchNorm1d-29               [-1, 16, 16]              32
             ReLU-30               [-1, 16, 16]               0
          Dropout-31               [-1, 16, 16]               0
           Conv1d-32               [-1, 16, 16]             272
  MyConv1dPadSame-33               [-1, 16, 16]               0
       Bottleneck-34               [-1, 16, 16]               0
      BatchNorm1d-35               [-1, 16, 16]              32
             ReLU-36               [-1, 16, 16]               0
          Dropout-37               [-1, 16, 16]               0
           Conv1d-38               [-1, 16, 16]             272
  MyConv1dPadSame-39               [-1, 16, 16]               0
      BatchNorm1d-40               [-1, 16, 16]              32
             ReLU-41               [-1, 16, 16]               0
          Dropout-42               [-1, 16, 16]               0
           Conv1d-43               [-1, 16, 16]             272
  MyConv1dPadSame-44               [-1, 16, 16]               0
       Bottleneck-45               [-1, 16, 16]               0
      BatchNorm1d-46               [-1, 16, 16]              32
             ReLU-47               [-1, 16, 16]               0
          Dropout-48               [-1, 16, 16]               0
           Conv1d-49               [-1, 32, 16]             544
  MyConv1dPadSame-50               [-1, 32, 16]               0
      BatchNorm1d-51               [-1, 32, 16]              64
             ReLU-52               [-1, 32, 16]               0
          Dropout-53               [-1, 32, 16]               0
           Conv1d-54               [-1, 32, 16]           1,056
  MyConv1dPadSame-55               [-1, 32, 16]               0
       Bottleneck-56               [-1, 32, 16]               0
      BatchNorm1d-57               [-1, 32, 16]              64
             ReLU-58               [-1, 32, 16]               0
          Dropout-59               [-1, 32, 16]               0
           Conv1d-60               [-1, 32, 16]           1,056
  MyConv1dPadSame-61               [-1, 32, 16]               0
      BatchNorm1d-62               [-1, 32, 16]              64
             ReLU-63               [-1, 32, 16]               0
          Dropout-64               [-1, 32, 16]               0
           Conv1d-65               [-1, 32, 16]           1,056
  MyConv1dPadSame-66               [-1, 32, 16]               0
       Bottleneck-67               [-1, 32, 16]               0
      BatchNorm1d-68               [-1, 32, 16]              64
             ReLU-69               [-1, 32, 16]               0
          Dropout-70               [-1, 32, 16]               0
           Conv1d-71               [-1, 64, 16]           2,112
  MyConv1dPadSame-72               [-1, 64, 16]               0
      BatchNorm1d-73               [-1, 64, 16]             128
             ReLU-74               [-1, 64, 16]               0
          Dropout-75               [-1, 64, 16]               0
           Conv1d-76               [-1, 64, 16]           4,160
  MyConv1dPadSame-77               [-1, 64, 16]               0
       Bottleneck-78               [-1, 64, 16]               0
      BatchNorm1d-79               [-1, 64, 16]             128
             ReLU-80               [-1, 64, 16]               0
          Dropout-81               [-1, 64, 16]               0
           Conv1d-82               [-1, 64, 16]           4,160
  MyConv1dPadSame-83               [-1, 64, 16]               0
      BatchNorm1d-84               [-1, 64, 16]             128
             ReLU-85               [-1, 64, 16]               0
          Dropout-86               [-1, 64, 16]               0
           Conv1d-87               [-1, 64, 16]           4,160
  MyConv1dPadSame-88               [-1, 64, 16]               0
       Bottleneck-89               [-1, 64, 16]               0
      BatchNorm1d-90               [-1, 64, 16]             128
             ReLU-91               [-1, 64, 16]               0
           Linear-92                    [-1, 2]             130
================================================================
Total params: 20,730
Trainable params: 20,730
Non-trainable params: 0
----------------------------------------------------------------
Input size (MB): 0.00
Forward/backward pass size (MB): 0.32
Params size (MB): 0.08
Estimated Total Size (MB): 0.40
----------------------------------------------------------------




************************************************************
************************************************************
n_length: 16, base_filters: 8, kernel_size: 8, n_block: 16
************************************************************
************************************************************
(2000, 1, 16) Counter({0: 1000, 1: 1000})
(2000, 1, 16) Counter({0: 1000, 1: 1000})
----------------------------------------------------------------
        Layer (type)               Output Shape         Param #
================================================================
            Conv1d-1                [-1, 8, 16]              72
   MyConv1dPadSame-2                [-1, 8, 16]               0
       BatchNorm1d-3                [-1, 8, 16]              16
              ReLU-4                [-1, 8, 16]               0
            Conv1d-5                [-1, 8, 16]              72
   MyConv1dPadSame-6                [-1, 8, 16]               0
       BatchNorm1d-7                [-1, 8, 16]              16
              ReLU-8                [-1, 8, 16]               0
           Dropout-9                [-1, 8, 16]               0
           Conv1d-10                [-1, 8, 16]              72
  MyConv1dPadSame-11                [-1, 8, 16]               0
       Bottleneck-12                [-1, 8, 16]               0
      BatchNorm1d-13                [-1, 8, 16]              16
             ReLU-14                [-1, 8, 16]               0
          Dropout-15                [-1, 8, 16]               0
           Conv1d-16                 [-1, 8, 8]              72
  MyConv1dPadSame-17                 [-1, 8, 8]               0
      BatchNorm1d-18                 [-1, 8, 8]              16
             ReLU-19                 [-1, 8, 8]               0
          Dropout-20                 [-1, 8, 8]               0
           Conv1d-21                 [-1, 8, 8]              72
  MyConv1dPadSame-22                 [-1, 8, 8]               0
        MaxPool1d-23                 [-1, 8, 8]               0
MyMaxPool1dPadSame-24                 [-1, 8, 8]               0
       Bottleneck-25                 [-1, 8, 8]               0
      BatchNorm1d-26                 [-1, 8, 8]              16
             ReLU-27                 [-1, 8, 8]               0
          Dropout-28                 [-1, 8, 8]               0
           Conv1d-29                 [-1, 8, 8]              72
  MyConv1dPadSame-30                 [-1, 8, 8]               0
      BatchNorm1d-31                 [-1, 8, 8]              16
             ReLU-32                 [-1, 8, 8]               0
          Dropout-33                 [-1, 8, 8]               0
           Conv1d-34                 [-1, 8, 8]              72
  MyConv1dPadSame-35                 [-1, 8, 8]               0
       Bottleneck-36                 [-1, 8, 8]               0
      BatchNorm1d-37                 [-1, 8, 8]              16
             ReLU-38                 [-1, 8, 8]               0
          Dropout-39                 [-1, 8, 8]               0
           Conv1d-40                 [-1, 8, 4]              72
  MyConv1dPadSame-41                 [-1, 8, 4]               0
      BatchNorm1d-42                 [-1, 8, 4]              16
             ReLU-43                 [-1, 8, 4]               0
          Dropout-44                 [-1, 8, 4]               0
           Conv1d-45                 [-1, 8, 4]              72
  MyConv1dPadSame-46                 [-1, 8, 4]               0
        MaxPool1d-47                 [-1, 8, 4]               0
MyMaxPool1dPadSame-48                 [-1, 8, 4]               0
       Bottleneck-49                 [-1, 8, 4]               0
      BatchNorm1d-50                 [-1, 8, 4]              16
             ReLU-51                 [-1, 8, 4]               0
          Dropout-52                 [-1, 8, 4]               0
           Conv1d-53                [-1, 16, 4]             144
  MyConv1dPadSame-54                [-1, 16, 4]               0
      BatchNorm1d-55                [-1, 16, 4]              32
             ReLU-56                [-1, 16, 4]               0
          Dropout-57                [-1, 16, 4]               0
           Conv1d-58                [-1, 16, 4]             272
  MyConv1dPadSame-59                [-1, 16, 4]               0
       Bottleneck-60                [-1, 16, 4]               0
      BatchNorm1d-61                [-1, 16, 4]              32
             ReLU-62                [-1, 16, 4]               0
          Dropout-63                [-1, 16, 4]               0
           Conv1d-64                [-1, 16, 2]             272
  MyConv1dPadSame-65                [-1, 16, 2]               0
      BatchNorm1d-66                [-1, 16, 2]              32
             ReLU-67                [-1, 16, 2]               0
          Dropout-68                [-1, 16, 2]               0
           Conv1d-69                [-1, 16, 2]             272
  MyConv1dPadSame-70                [-1, 16, 2]               0
        MaxPool1d-71                [-1, 16, 2]               0
MyMaxPool1dPadSame-72                [-1, 16, 2]               0
       Bottleneck-73                [-1, 16, 2]               0
      BatchNorm1d-74                [-1, 16, 2]              32
             ReLU-75                [-1, 16, 2]               0
          Dropout-76                [-1, 16, 2]               0
           Conv1d-77                [-1, 16, 2]             272
  MyConv1dPadSame-78                [-1, 16, 2]               0
      BatchNorm1d-79                [-1, 16, 2]              32
             ReLU-80                [-1, 16, 2]               0
          Dropout-81                [-1, 16, 2]               0
           Conv1d-82                [-1, 16, 2]             272
  MyConv1dPadSame-83                [-1, 16, 2]               0
       Bottleneck-84                [-1, 16, 2]               0
      BatchNorm1d-85                [-1, 16, 2]              32
             ReLU-86                [-1, 16, 2]               0
          Dropout-87                [-1, 16, 2]               0
           Conv1d-88                [-1, 16, 1]             272
  MyConv1dPadSame-89                [-1, 16, 1]               0
      BatchNorm1d-90                [-1, 16, 1]              32
             ReLU-91                [-1, 16, 1]               0
          Dropout-92                [-1, 16, 1]               0
           Conv1d-93                [-1, 16, 1]             272
  MyConv1dPadSame-94                [-1, 16, 1]               0
        MaxPool1d-95                [-1, 16, 1]               0
MyMaxPool1dPadSame-96                [-1, 16, 1]               0
       Bottleneck-97                [-1, 16, 1]               0
      BatchNorm1d-98                [-1, 16, 1]              32
             ReLU-99                [-1, 16, 1]               0
         Dropout-100                [-1, 16, 1]               0
          Conv1d-101                [-1, 32, 1]             544
 MyConv1dPadSame-102                [-1, 32, 1]               0
     BatchNorm1d-103                [-1, 32, 1]              64
            ReLU-104                [-1, 32, 1]               0
         Dropout-105                [-1, 32, 1]               0
          Conv1d-106                [-1, 32, 1]           1,056
 MyConv1dPadSame-107                [-1, 32, 1]               0
      Bottleneck-108                [-1, 32, 1]               0
     BatchNorm1d-109                [-1, 32, 1]              64
            ReLU-110                [-1, 32, 1]               0
         Dropout-111                [-1, 32, 1]               0
          Conv1d-112                [-1, 32, 1]           1,056
 MyConv1dPadSame-113                [-1, 32, 1]               0
     BatchNorm1d-114                [-1, 32, 1]              64
            ReLU-115                [-1, 32, 1]               0
         Dropout-116                [-1, 32, 1]               0
          Conv1d-117                [-1, 32, 1]           1,056
 MyConv1dPadSame-118                [-1, 32, 1]               0
       MaxPool1d-119                [-1, 32, 1]               0
MyMaxPool1dPadSame-120                [-1, 32, 1]               0
      Bottleneck-121                [-1, 32, 1]               0
     BatchNorm1d-122                [-1, 32, 1]              64
            ReLU-123                [-1, 32, 1]               0
         Dropout-124                [-1, 32, 1]               0
          Conv1d-125                [-1, 32, 1]           1,056
 MyConv1dPadSame-126                [-1, 32, 1]               0
     BatchNorm1d-127                [-1, 32, 1]              64
            ReLU-128                [-1, 32, 1]               0
         Dropout-129                [-1, 32, 1]               0
          Conv1d-130                [-1, 32, 1]           1,056
 MyConv1dPadSame-131                [-1, 32, 1]               0
      Bottleneck-132                [-1, 32, 1]               0
     BatchNorm1d-133                [-1, 32, 1]              64
            ReLU-134                [-1, 32, 1]               0
         Dropout-135                [-1, 32, 1]               0
          Conv1d-136                [-1, 32, 1]           1,056
 MyConv1dPadSame-137                [-1, 32, 1]               0
     BatchNorm1d-138                [-1, 32, 1]              64
            ReLU-139                [-1, 32, 1]               0
         Dropout-140                [-1, 32, 1]               0
          Conv1d-141                [-1, 32, 1]           1,056
 MyConv1dPadSame-142                [-1, 32, 1]               0
       MaxPool1d-143                [-1, 32, 1]               0
MyMaxPool1dPadSame-144                [-1, 32, 1]               0
      Bottleneck-145                [-1, 32, 1]               0
     BatchNorm1d-146                [-1, 32, 1]              64
            ReLU-147                [-1, 32, 1]               0
         Dropout-148                [-1, 32, 1]               0
          Conv1d-149                [-1, 64, 1]           2,112
 MyConv1dPadSame-150                [-1, 64, 1]               0
     BatchNorm1d-151                [-1, 64, 1]             128
            ReLU-152                [-1, 64, 1]               0
         Dropout-153                [-1, 64, 1]               0
          Conv1d-154                [-1, 64, 1]           4,160
 MyConv1dPadSame-155                [-1, 64, 1]               0
      Bottleneck-156                [-1, 64, 1]               0
     BatchNorm1d-157                [-1, 64, 1]             128
            ReLU-158                [-1, 64, 1]               0
         Dropout-159                [-1, 64, 1]               0
          Conv1d-160                [-1, 64, 1]           4,160
 MyConv1dPadSame-161                [-1, 64, 1]               0
     BatchNorm1d-162                [-1, 64, 1]             128
            ReLU-163                [-1, 64, 1]               0
         Dropout-164                [-1, 64, 1]               0
          Conv1d-165                [-1, 64, 1]           4,160
 MyConv1dPadSame-166                [-1, 64, 1]               0
       MaxPool1d-167                [-1, 64, 1]               0
MyMaxPool1dPadSame-168                [-1, 64, 1]               0
      Bottleneck-169                [-1, 64, 1]               0
     BatchNorm1d-170                [-1, 64, 1]             128
            ReLU-171                [-1, 64, 1]               0
         Dropout-172                [-1, 64, 1]               0
          Conv1d-173                [-1, 64, 1]           4,160
 MyConv1dPadSame-174                [-1, 64, 1]               0
     BatchNorm1d-175                [-1, 64, 1]             128
            ReLU-176                [-1, 64, 1]               0
         Dropout-177                [-1, 64, 1]               0
          Conv1d-178                [-1, 64, 1]           4,160
 MyConv1dPadSame-179                [-1, 64, 1]               0
      Bottleneck-180                [-1, 64, 1]               0
     BatchNorm1d-181                [-1, 64, 1]             128
            ReLU-182                [-1, 64, 1]               0
         Dropout-183                [-1, 64, 1]               0
          Conv1d-184                [-1, 64, 1]           4,160
 MyConv1dPadSame-185                [-1, 64, 1]               0
     BatchNorm1d-186                [-1, 64, 1]             128
            ReLU-187                [-1, 64, 1]               0
         Dropout-188                [-1, 64, 1]               0
          Conv1d-189                [-1, 64, 1]           4,160
 MyConv1dPadSame-190                [-1, 64, 1]               0
       MaxPool1d-191                [-1, 64, 1]               0
MyMaxPool1dPadSame-192                [-1, 64, 1]               0
      Bottleneck-193                [-1, 64, 1]               0
     BatchNorm1d-194                [-1, 64, 1]             128
            ReLU-195                [-1, 64, 1]               0
          Linear-196                    [-1, 2]             130
================================================================
Total params: 43,930
Trainable params: 43,930
Non-trainable params: 0
----------------------------------------------------------------
Input size (MB): 0.00
Forward/backward pass size (MB): 0.08
Params size (MB): 0.17
Estimated Total Size (MB): 0.24
----------------------------------------------------------------




************************************************************
************************************************************
n_length: 16, base_filters: 8, kernel_size: 16, n_block: 2
************************************************************
************************************************************
(2000, 1, 16) Counter({0: 1000, 1: 1000})
(2000, 1, 16) Counter({0: 1000, 1: 1000})
----------------------------------------------------------------
        Layer (type)               Output Shape         Param #
================================================================
            Conv1d-1                [-1, 8, 16]             136
   MyConv1dPadSame-2                [-1, 8, 16]               0
       BatchNorm1d-3                [-1, 8, 16]              16
              ReLU-4                [-1, 8, 16]               0
            Conv1d-5                [-1, 8, 16]             136
   MyConv1dPadSame-6                [-1, 8, 16]               0
       BatchNorm1d-7                [-1, 8, 16]              16
              ReLU-8                [-1, 8, 16]               0
           Dropout-9                [-1, 8, 16]               0
           Conv1d-10                [-1, 8, 16]             136
  MyConv1dPadSame-11                [-1, 8, 16]               0
       Bottleneck-12                [-1, 8, 16]               0
      BatchNorm1d-13                [-1, 8, 16]              16
             ReLU-14                [-1, 8, 16]               0
          Dropout-15                [-1, 8, 16]               0
           Conv1d-16               [-1, 16, 16]             272
  MyConv1dPadSame-17               [-1, 16, 16]               0
      BatchNorm1d-18               [-1, 16, 16]              32
             ReLU-19               [-1, 16, 16]               0
          Dropout-20               [-1, 16, 16]               0
           Conv1d-21               [-1, 16, 16]             528
  MyConv1dPadSame-22               [-1, 16, 16]               0
       Bottleneck-23               [-1, 16, 16]               0
      BatchNorm1d-24               [-1, 16, 16]              32
             ReLU-25               [-1, 16, 16]               0
           Linear-26                    [-1, 2]              34
================================================================
Total params: 1,354
Trainable params: 1,354
Non-trainable params: 0
----------------------------------------------------------------
Input size (MB): 0.00
Forward/backward pass size (MB): 0.03
Params size (MB): 0.01
Estimated Total Size (MB): 0.04
----------------------------------------------------------------




************************************************************
************************************************************
n_length: 16, base_filters: 8, kernel_size: 16, n_block: 4
************************************************************
************************************************************
(2000, 1, 16) Counter({1: 1000, 0: 1000})
(2000, 1, 16) Counter({1: 1000, 0: 1000})
----------------------------------------------------------------
        Layer (type)               Output Shape         Param #
================================================================
            Conv1d-1                [-1, 8, 16]             136
   MyConv1dPadSame-2                [-1, 8, 16]               0
       BatchNorm1d-3                [-1, 8, 16]              16
              ReLU-4                [-1, 8, 16]               0
            Conv1d-5                [-1, 8, 16]             136
   MyConv1dPadSame-6                [-1, 8, 16]               0
       BatchNorm1d-7                [-1, 8, 16]              16
              ReLU-8                [-1, 8, 16]               0
           Dropout-9                [-1, 8, 16]               0
           Conv1d-10                [-1, 8, 16]             136
  MyConv1dPadSame-11                [-1, 8, 16]               0
       Bottleneck-12                [-1, 8, 16]               0
      BatchNorm1d-13                [-1, 8, 16]              16
             ReLU-14                [-1, 8, 16]               0
          Dropout-15                [-1, 8, 16]               0
           Conv1d-16               [-1, 16, 16]             272
  MyConv1dPadSame-17               [-1, 16, 16]               0
      BatchNorm1d-18               [-1, 16, 16]              32
             ReLU-19               [-1, 16, 16]               0
          Dropout-20               [-1, 16, 16]               0
           Conv1d-21               [-1, 16, 16]             528
  MyConv1dPadSame-22               [-1, 16, 16]               0
       Bottleneck-23               [-1, 16, 16]               0
      BatchNorm1d-24               [-1, 16, 16]              32
             ReLU-25               [-1, 16, 16]               0
          Dropout-26               [-1, 16, 16]               0
           Conv1d-27               [-1, 32, 16]           1,056
  MyConv1dPadSame-28               [-1, 32, 16]               0
      BatchNorm1d-29               [-1, 32, 16]              64
             ReLU-30               [-1, 32, 16]               0
          Dropout-31               [-1, 32, 16]               0
           Conv1d-32               [-1, 32, 16]           2,080
  MyConv1dPadSame-33               [-1, 32, 16]               0
       Bottleneck-34               [-1, 32, 16]               0
      BatchNorm1d-35               [-1, 32, 16]              64
             ReLU-36               [-1, 32, 16]               0
          Dropout-37               [-1, 32, 16]               0
           Conv1d-38               [-1, 64, 16]           4,160
  MyConv1dPadSame-39               [-1, 64, 16]               0
      BatchNorm1d-40               [-1, 64, 16]             128
             ReLU-41               [-1, 64, 16]               0
          Dropout-42               [-1, 64, 16]               0
           Conv1d-43               [-1, 64, 16]           8,256
  MyConv1dPadSame-44               [-1, 64, 16]               0
       Bottleneck-45               [-1, 64, 16]               0
      BatchNorm1d-46               [-1, 64, 16]             128
             ReLU-47               [-1, 64, 16]               0
           Linear-48                    [-1, 2]             130
================================================================
Total params: 17,386
Trainable params: 17,386
Non-trainable params: 0
----------------------------------------------------------------
Input size (MB): 0.00
Forward/backward pass size (MB): 0.16
Params size (MB): 0.07
Estimated Total Size (MB): 0.22
----------------------------------------------------------------




************************************************************
************************************************************
n_length: 16, base_filters: 8, kernel_size: 16, n_block: 8
************************************************************
************************************************************
(2000, 1, 16) Counter({1: 1000, 0: 1000})
(2000, 1, 16) Counter({0: 1000, 1: 1000})
----------------------------------------------------------------
        Layer (type)               Output Shape         Param #
================================================================
            Conv1d-1                [-1, 8, 16]             136
   MyConv1dPadSame-2                [-1, 8, 16]               0
       BatchNorm1d-3                [-1, 8, 16]              16
              ReLU-4                [-1, 8, 16]               0
            Conv1d-5                [-1, 8, 16]             136
   MyConv1dPadSame-6                [-1, 8, 16]               0
       BatchNorm1d-7                [-1, 8, 16]              16
              ReLU-8                [-1, 8, 16]               0
           Dropout-9                [-1, 8, 16]               0
           Conv1d-10                [-1, 8, 16]             136
  MyConv1dPadSame-11                [-1, 8, 16]               0
       Bottleneck-12                [-1, 8, 16]               0
      BatchNorm1d-13                [-1, 8, 16]              16
             ReLU-14                [-1, 8, 16]               0
          Dropout-15                [-1, 8, 16]               0
           Conv1d-16                [-1, 8, 16]             136
  MyConv1dPadSame-17                [-1, 8, 16]               0
      BatchNorm1d-18                [-1, 8, 16]              16
             ReLU-19                [-1, 8, 16]               0
          Dropout-20                [-1, 8, 16]               0
           Conv1d-21                [-1, 8, 16]             136
  MyConv1dPadSame-22                [-1, 8, 16]               0
       Bottleneck-23                [-1, 8, 16]               0
      BatchNorm1d-24                [-1, 8, 16]              16
             ReLU-25                [-1, 8, 16]               0
          Dropout-26                [-1, 8, 16]               0
           Conv1d-27               [-1, 16, 16]             272
  MyConv1dPadSame-28               [-1, 16, 16]               0
      BatchNorm1d-29               [-1, 16, 16]              32
             ReLU-30               [-1, 16, 16]               0
          Dropout-31               [-1, 16, 16]               0
           Conv1d-32               [-1, 16, 16]             528
  MyConv1dPadSame-33               [-1, 16, 16]               0
       Bottleneck-34               [-1, 16, 16]               0
      BatchNorm1d-35               [-1, 16, 16]              32
             ReLU-36               [-1, 16, 16]               0
          Dropout-37               [-1, 16, 16]               0
           Conv1d-38               [-1, 16, 16]             528
  MyConv1dPadSame-39               [-1, 16, 16]               0
      BatchNorm1d-40               [-1, 16, 16]              32
             ReLU-41               [-1, 16, 16]               0
          Dropout-42               [-1, 16, 16]               0
           Conv1d-43               [-1, 16, 16]             528
  MyConv1dPadSame-44               [-1, 16, 16]               0
       Bottleneck-45               [-1, 16, 16]               0
      BatchNorm1d-46               [-1, 16, 16]              32
             ReLU-47               [-1, 16, 16]               0
          Dropout-48               [-1, 16, 16]               0
           Conv1d-49               [-1, 32, 16]           1,056
  MyConv1dPadSame-50               [-1, 32, 16]               0
      BatchNorm1d-51               [-1, 32, 16]              64
             ReLU-52               [-1, 32, 16]               0
          Dropout-53               [-1, 32, 16]               0
           Conv1d-54               [-1, 32, 16]           2,080
  MyConv1dPadSame-55               [-1, 32, 16]               0
       Bottleneck-56               [-1, 32, 16]               0
      BatchNorm1d-57               [-1, 32, 16]              64
             ReLU-58               [-1, 32, 16]               0
          Dropout-59               [-1, 32, 16]               0
           Conv1d-60               [-1, 32, 16]           2,080
  MyConv1dPadSame-61               [-1, 32, 16]               0
      BatchNorm1d-62               [-1, 32, 16]              64
             ReLU-63               [-1, 32, 16]               0
          Dropout-64               [-1, 32, 16]               0
           Conv1d-65               [-1, 32, 16]           2,080
  MyConv1dPadSame-66               [-1, 32, 16]               0
       Bottleneck-67               [-1, 32, 16]               0
      BatchNorm1d-68               [-1, 32, 16]              64
             ReLU-69               [-1, 32, 16]               0
          Dropout-70               [-1, 32, 16]               0
           Conv1d-71               [-1, 64, 16]           4,160
  MyConv1dPadSame-72               [-1, 64, 16]               0
      BatchNorm1d-73               [-1, 64, 16]             128
             ReLU-74               [-1, 64, 16]               0
          Dropout-75               [-1, 64, 16]               0
           Conv1d-76               [-1, 64, 16]           8,256
  MyConv1dPadSame-77               [-1, 64, 16]               0
       Bottleneck-78               [-1, 64, 16]               0
      BatchNorm1d-79               [-1, 64, 16]             128
             ReLU-80               [-1, 64, 16]               0
          Dropout-81               [-1, 64, 16]               0
           Conv1d-82               [-1, 64, 16]           8,256
  MyConv1dPadSame-83               [-1, 64, 16]               0
      BatchNorm1d-84               [-1, 64, 16]             128
             ReLU-85               [-1, 64, 16]               0
          Dropout-86               [-1, 64, 16]               0
           Conv1d-87               [-1, 64, 16]           8,256
  MyConv1dPadSame-88               [-1, 64, 16]               0
       Bottleneck-89               [-1, 64, 16]               0
      BatchNorm1d-90               [-1, 64, 16]             128
             ReLU-91               [-1, 64, 16]               0
           Linear-92                    [-1, 2]             130
================================================================
Total params: 39,866
Trainable params: 39,866
Non-trainable params: 0
----------------------------------------------------------------
Input size (MB): 0.00
Forward/backward pass size (MB): 0.32
Params size (MB): 0.15
Estimated Total Size (MB): 0.47
----------------------------------------------------------------




************************************************************
************************************************************
n_length: 16, base_filters: 8, kernel_size: 16, n_block: 16
************************************************************
************************************************************
(2000, 1, 16) Counter({0: 1000, 1: 1000})
(2000, 1, 16) Counter({0: 1000, 1: 1000})
----------------------------------------------------------------
        Layer (type)               Output Shape         Param #
================================================================
            Conv1d-1                [-1, 8, 16]             136
   MyConv1dPadSame-2                [-1, 8, 16]               0
       BatchNorm1d-3                [-1, 8, 16]              16
              ReLU-4                [-1, 8, 16]               0
            Conv1d-5                [-1, 8, 16]             136
   MyConv1dPadSame-6                [-1, 8, 16]               0
       BatchNorm1d-7                [-1, 8, 16]              16
              ReLU-8                [-1, 8, 16]               0
           Dropout-9                [-1, 8, 16]               0
           Conv1d-10                [-1, 8, 16]             136
  MyConv1dPadSame-11                [-1, 8, 16]               0
       Bottleneck-12                [-1, 8, 16]               0
      BatchNorm1d-13                [-1, 8, 16]              16
             ReLU-14                [-1, 8, 16]               0
          Dropout-15                [-1, 8, 16]               0
           Conv1d-16                 [-1, 8, 8]             136
  MyConv1dPadSame-17                 [-1, 8, 8]               0
      BatchNorm1d-18                 [-1, 8, 8]              16
             ReLU-19                 [-1, 8, 8]               0
          Dropout-20                 [-1, 8, 8]               0
           Conv1d-21                 [-1, 8, 8]             136
  MyConv1dPadSame-22                 [-1, 8, 8]               0
        MaxPool1d-23                 [-1, 8, 8]               0
MyMaxPool1dPadSame-24                 [-1, 8, 8]               0
       Bottleneck-25                 [-1, 8, 8]               0
      BatchNorm1d-26                 [-1, 8, 8]              16
             ReLU-27                 [-1, 8, 8]               0
          Dropout-28                 [-1, 8, 8]               0
           Conv1d-29                 [-1, 8, 8]             136
  MyConv1dPadSame-30                 [-1, 8, 8]               0
      BatchNorm1d-31                 [-1, 8, 8]              16
             ReLU-32                 [-1, 8, 8]               0
          Dropout-33                 [-1, 8, 8]               0
           Conv1d-34                 [-1, 8, 8]             136
  MyConv1dPadSame-35                 [-1, 8, 8]               0
       Bottleneck-36                 [-1, 8, 8]               0
      BatchNorm1d-37                 [-1, 8, 8]              16
             ReLU-38                 [-1, 8, 8]               0
          Dropout-39                 [-1, 8, 8]               0
           Conv1d-40                 [-1, 8, 4]             136
  MyConv1dPadSame-41                 [-1, 8, 4]               0
      BatchNorm1d-42                 [-1, 8, 4]              16
             ReLU-43                 [-1, 8, 4]               0
          Dropout-44                 [-1, 8, 4]               0
           Conv1d-45                 [-1, 8, 4]             136
  MyConv1dPadSame-46                 [-1, 8, 4]               0
        MaxPool1d-47                 [-1, 8, 4]               0
MyMaxPool1dPadSame-48                 [-1, 8, 4]               0
       Bottleneck-49                 [-1, 8, 4]               0
      BatchNorm1d-50                 [-1, 8, 4]              16
             ReLU-51                 [-1, 8, 4]               0
          Dropout-52                 [-1, 8, 4]               0
           Conv1d-53                [-1, 16, 4]             272
  MyConv1dPadSame-54                [-1, 16, 4]               0
      BatchNorm1d-55                [-1, 16, 4]              32
             ReLU-56                [-1, 16, 4]               0
          Dropout-57                [-1, 16, 4]               0
           Conv1d-58                [-1, 16, 4]             528
  MyConv1dPadSame-59                [-1, 16, 4]               0
       Bottleneck-60                [-1, 16, 4]               0
      BatchNorm1d-61                [-1, 16, 4]              32
             ReLU-62                [-1, 16, 4]               0
          Dropout-63                [-1, 16, 4]               0
           Conv1d-64                [-1, 16, 2]             528
  MyConv1dPadSame-65                [-1, 16, 2]               0
      BatchNorm1d-66                [-1, 16, 2]              32
             ReLU-67                [-1, 16, 2]               0
          Dropout-68                [-1, 16, 2]               0
           Conv1d-69                [-1, 16, 2]             528
  MyConv1dPadSame-70                [-1, 16, 2]               0
        MaxPool1d-71                [-1, 16, 2]               0
MyMaxPool1dPadSame-72                [-1, 16, 2]               0
       Bottleneck-73                [-1, 16, 2]               0
      BatchNorm1d-74                [-1, 16, 2]              32
             ReLU-75                [-1, 16, 2]               0
          Dropout-76                [-1, 16, 2]               0
           Conv1d-77                [-1, 16, 2]             528
  MyConv1dPadSame-78                [-1, 16, 2]               0
      BatchNorm1d-79                [-1, 16, 2]              32
             ReLU-80                [-1, 16, 2]               0
          Dropout-81                [-1, 16, 2]               0
           Conv1d-82                [-1, 16, 2]             528
  MyConv1dPadSame-83                [-1, 16, 2]               0
       Bottleneck-84                [-1, 16, 2]               0
      BatchNorm1d-85                [-1, 16, 2]              32
             ReLU-86                [-1, 16, 2]               0
          Dropout-87                [-1, 16, 2]               0
           Conv1d-88                [-1, 16, 1]             528
  MyConv1dPadSame-89                [-1, 16, 1]               0
      BatchNorm1d-90                [-1, 16, 1]              32
             ReLU-91                [-1, 16, 1]               0
          Dropout-92                [-1, 16, 1]               0
           Conv1d-93                [-1, 16, 1]             528
  MyConv1dPadSame-94                [-1, 16, 1]               0
        MaxPool1d-95                [-1, 16, 1]               0
MyMaxPool1dPadSame-96                [-1, 16, 1]               0
       Bottleneck-97                [-1, 16, 1]               0
      BatchNorm1d-98                [-1, 16, 1]              32
             ReLU-99                [-1, 16, 1]               0
         Dropout-100                [-1, 16, 1]               0
          Conv1d-101                [-1, 32, 1]           1,056
 MyConv1dPadSame-102                [-1, 32, 1]               0
     BatchNorm1d-103                [-1, 32, 1]              64
            ReLU-104                [-1, 32, 1]               0
         Dropout-105                [-1, 32, 1]               0
          Conv1d-106                [-1, 32, 1]           2,080
 MyConv1dPadSame-107                [-1, 32, 1]               0
      Bottleneck-108                [-1, 32, 1]               0
     BatchNorm1d-109                [-1, 32, 1]              64
            ReLU-110                [-1, 32, 1]               0
         Dropout-111                [-1, 32, 1]               0
          Conv1d-112                [-1, 32, 1]           2,080
 MyConv1dPadSame-113                [-1, 32, 1]               0
     BatchNorm1d-114                [-1, 32, 1]              64
            ReLU-115                [-1, 32, 1]               0
         Dropout-116                [-1, 32, 1]               0
          Conv1d-117                [-1, 32, 1]           2,080
 MyConv1dPadSame-118                [-1, 32, 1]               0
       MaxPool1d-119                [-1, 32, 1]               0
MyMaxPool1dPadSame-120                [-1, 32, 1]               0
      Bottleneck-121                [-1, 32, 1]               0
     BatchNorm1d-122                [-1, 32, 1]              64
            ReLU-123                [-1, 32, 1]               0
         Dropout-124                [-1, 32, 1]               0
          Conv1d-125                [-1, 32, 1]           2,080
 MyConv1dPadSame-126                [-1, 32, 1]               0
     BatchNorm1d-127                [-1, 32, 1]              64
            ReLU-128                [-1, 32, 1]               0
         Dropout-129                [-1, 32, 1]               0
          Conv1d-130                [-1, 32, 1]           2,080
 MyConv1dPadSame-131                [-1, 32, 1]               0
      Bottleneck-132                [-1, 32, 1]               0
     BatchNorm1d-133                [-1, 32, 1]              64
            ReLU-134                [-1, 32, 1]               0
         Dropout-135                [-1, 32, 1]               0
          Conv1d-136                [-1, 32, 1]           2,080
 MyConv1dPadSame-137                [-1, 32, 1]               0
     BatchNorm1d-138                [-1, 32, 1]              64
            ReLU-139                [-1, 32, 1]               0
         Dropout-140                [-1, 32, 1]               0
          Conv1d-141                [-1, 32, 1]           2,080
 MyConv1dPadSame-142                [-1, 32, 1]               0
       MaxPool1d-143                [-1, 32, 1]               0
MyMaxPool1dPadSame-144                [-1, 32, 1]               0
      Bottleneck-145                [-1, 32, 1]               0
     BatchNorm1d-146                [-1, 32, 1]              64
            ReLU-147                [-1, 32, 1]               0
         Dropout-148                [-1, 32, 1]               0
          Conv1d-149                [-1, 64, 1]           4,160
 MyConv1dPadSame-150                [-1, 64, 1]               0
     BatchNorm1d-151                [-1, 64, 1]             128
            ReLU-152                [-1, 64, 1]               0
         Dropout-153                [-1, 64, 1]               0
          Conv1d-154                [-1, 64, 1]           8,256
 MyConv1dPadSame-155                [-1, 64, 1]               0
      Bottleneck-156                [-1, 64, 1]               0
     BatchNorm1d-157                [-1, 64, 1]             128
            ReLU-158                [-1, 64, 1]               0
         Dropout-159                [-1, 64, 1]               0
          Conv1d-160                [-1, 64, 1]           8,256
 MyConv1dPadSame-161                [-1, 64, 1]               0
     BatchNorm1d-162                [-1, 64, 1]             128
            ReLU-163                [-1, 64, 1]               0
         Dropout-164                [-1, 64, 1]               0
          Conv1d-165                [-1, 64, 1]           8,256
 MyConv1dPadSame-166                [-1, 64, 1]               0
       MaxPool1d-167                [-1, 64, 1]               0
MyMaxPool1dPadSame-168                [-1, 64, 1]               0
      Bottleneck-169                [-1, 64, 1]               0
     BatchNorm1d-170                [-1, 64, 1]             128
            ReLU-171                [-1, 64, 1]               0
         Dropout-172                [-1, 64, 1]               0
          Conv1d-173                [-1, 64, 1]           8,256
 MyConv1dPadSame-174                [-1, 64, 1]               0
     BatchNorm1d-175                [-1, 64, 1]             128
            ReLU-176                [-1, 64, 1]               0
         Dropout-177                [-1, 64, 1]               0
          Conv1d-178                [-1, 64, 1]           8,256
 MyConv1dPadSame-179                [-1, 64, 1]               0
      Bottleneck-180                [-1, 64, 1]               0
     BatchNorm1d-181                [-1, 64, 1]             128
            ReLU-182                [-1, 64, 1]               0
         Dropout-183                [-1, 64, 1]               0
          Conv1d-184                [-1, 64, 1]           8,256
 MyConv1dPadSame-185                [-1, 64, 1]               0
     BatchNorm1d-186                [-1, 64, 1]             128
            ReLU-187                [-1, 64, 1]               0
         Dropout-188                [-1, 64, 1]               0
          Conv1d-189                [-1, 64, 1]           8,256
 MyConv1dPadSame-190                [-1, 64, 1]               0
       MaxPool1d-191                [-1, 64, 1]               0
MyMaxPool1dPadSame-192                [-1, 64, 1]               0
      Bottleneck-193                [-1, 64, 1]               0
     BatchNorm1d-194                [-1, 64, 1]             128
            ReLU-195                [-1, 64, 1]               0
          Linear-196                    [-1, 2]             130
================================================================
Total params: 84,826
Trainable params: 84,826
Non-trainable params: 0
----------------------------------------------------------------
Input size (MB): 0.00
Forward/backward pass size (MB): 0.08
Params size (MB): 0.32
Estimated Total Size (MB): 0.40
----------------------------------------------------------------




************************************************************
************************************************************
n_length: 16, base_filters: 16, kernel_size: 2, n_block: 2
************************************************************
************************************************************
(2000, 1, 16) Counter({1: 1000, 0: 1000})
(2000, 1, 16) Counter({1: 1000, 0: 1000})
----------------------------------------------------------------
        Layer (type)               Output Shape         Param #
================================================================
            Conv1d-1               [-1, 16, 16]              48
   MyConv1dPadSame-2               [-1, 16, 16]               0
       BatchNorm1d-3               [-1, 16, 16]              32
              ReLU-4               [-1, 16, 16]               0
            Conv1d-5               [-1, 16, 16]              48
   MyConv1dPadSame-6               [-1, 16, 16]               0
       BatchNorm1d-7               [-1, 16, 16]              32
              ReLU-8               [-1, 16, 16]               0
           Dropout-9               [-1, 16, 16]               0
           Conv1d-10               [-1, 16, 16]              48
  MyConv1dPadSame-11               [-1, 16, 16]               0
       Bottleneck-12               [-1, 16, 16]               0
      BatchNorm1d-13               [-1, 16, 16]              32
             ReLU-14               [-1, 16, 16]               0
          Dropout-15               [-1, 16, 16]               0
           Conv1d-16               [-1, 32, 16]              96
  MyConv1dPadSame-17               [-1, 32, 16]               0
      BatchNorm1d-18               [-1, 32, 16]              64
             ReLU-19               [-1, 32, 16]               0
          Dropout-20               [-1, 32, 16]               0
           Conv1d-21               [-1, 32, 16]             160
  MyConv1dPadSame-22               [-1, 32, 16]               0
       Bottleneck-23               [-1, 32, 16]               0
      BatchNorm1d-24               [-1, 32, 16]              64
             ReLU-25               [-1, 32, 16]               0
           Linear-26                    [-1, 2]              66
================================================================
Total params: 690
Trainable params: 690
Non-trainable params: 0
----------------------------------------------------------------
Input size (MB): 0.00
Forward/backward pass size (MB): 0.07
Params size (MB): 0.00
Estimated Total Size (MB): 0.07
----------------------------------------------------------------




************************************************************
************************************************************
n_length: 16, base_filters: 16, kernel_size: 2, n_block: 4
************************************************************
************************************************************
(2000, 1, 16) Counter({0: 1000, 1: 1000})
(2000, 1, 16) Counter({0: 1000, 1: 1000})
----------------------------------------------------------------
        Layer (type)               Output Shape         Param #
================================================================
            Conv1d-1               [-1, 16, 16]              48
   MyConv1dPadSame-2               [-1, 16, 16]               0
       BatchNorm1d-3               [-1, 16, 16]              32
              ReLU-4               [-1, 16, 16]               0
            Conv1d-5               [-1, 16, 16]              48
   MyConv1dPadSame-6               [-1, 16, 16]               0
       BatchNorm1d-7               [-1, 16, 16]              32
              ReLU-8               [-1, 16, 16]               0
           Dropout-9               [-1, 16, 16]               0
           Conv1d-10               [-1, 16, 16]              48
  MyConv1dPadSame-11               [-1, 16, 16]               0
       Bottleneck-12               [-1, 16, 16]               0
      BatchNorm1d-13               [-1, 16, 16]              32
             ReLU-14               [-1, 16, 16]               0
          Dropout-15               [-1, 16, 16]               0
           Conv1d-16               [-1, 32, 16]              96
  MyConv1dPadSame-17               [-1, 32, 16]               0
      BatchNorm1d-18               [-1, 32, 16]              64
             ReLU-19               [-1, 32, 16]               0
          Dropout-20               [-1, 32, 16]               0
           Conv1d-21               [-1, 32, 16]             160
  MyConv1dPadSame-22               [-1, 32, 16]               0
       Bottleneck-23               [-1, 32, 16]               0
      BatchNorm1d-24               [-1, 32, 16]              64
             ReLU-25               [-1, 32, 16]               0
          Dropout-26               [-1, 32, 16]               0
           Conv1d-27               [-1, 64, 16]             320
  MyConv1dPadSame-28               [-1, 64, 16]               0
      BatchNorm1d-29               [-1, 64, 16]             128
             ReLU-30               [-1, 64, 16]               0
          Dropout-31               [-1, 64, 16]               0
           Conv1d-32               [-1, 64, 16]             576
  MyConv1dPadSame-33               [-1, 64, 16]               0
       Bottleneck-34               [-1, 64, 16]               0
      BatchNorm1d-35               [-1, 64, 16]             128
             ReLU-36               [-1, 64, 16]               0
          Dropout-37               [-1, 64, 16]               0
           Conv1d-38              [-1, 128, 16]           1,152
  MyConv1dPadSame-39              [-1, 128, 16]               0
      BatchNorm1d-40              [-1, 128, 16]             256
             ReLU-41              [-1, 128, 16]               0
          Dropout-42              [-1, 128, 16]               0
           Conv1d-43              [-1, 128, 16]           2,176
  MyConv1dPadSame-44              [-1, 128, 16]               0
       Bottleneck-45              [-1, 128, 16]               0
      BatchNorm1d-46              [-1, 128, 16]             256
             ReLU-47              [-1, 128, 16]               0
           Linear-48                    [-1, 2]             258
================================================================
Total params: 5,874
Trainable params: 5,874
Non-trainable params: 0
----------------------------------------------------------------
Input size (MB): 0.00
Forward/backward pass size (MB): 0.31
Params size (MB): 0.02
Estimated Total Size (MB): 0.34
----------------------------------------------------------------




************************************************************
************************************************************
n_length: 16, base_filters: 16, kernel_size: 2, n_block: 8
************************************************************
************************************************************
(2000, 1, 16) Counter({1: 1000, 0: 1000})
(2000, 1, 16) Counter({0: 1000, 1: 1000})
----------------------------------------------------------------
        Layer (type)               Output Shape         Param #
================================================================
            Conv1d-1               [-1, 16, 16]              48
   MyConv1dPadSame-2               [-1, 16, 16]               0
       BatchNorm1d-3               [-1, 16, 16]              32
              ReLU-4               [-1, 16, 16]               0
            Conv1d-5               [-1, 16, 16]              48
   MyConv1dPadSame-6               [-1, 16, 16]               0
       BatchNorm1d-7               [-1, 16, 16]              32
              ReLU-8               [-1, 16, 16]               0
           Dropout-9               [-1, 16, 16]               0
           Conv1d-10               [-1, 16, 16]              48
  MyConv1dPadSame-11               [-1, 16, 16]               0
       Bottleneck-12               [-1, 16, 16]               0
      BatchNorm1d-13               [-1, 16, 16]              32
             ReLU-14               [-1, 16, 16]               0
          Dropout-15               [-1, 16, 16]               0
           Conv1d-16               [-1, 16, 16]              48
  MyConv1dPadSame-17               [-1, 16, 16]               0
      BatchNorm1d-18               [-1, 16, 16]              32
             ReLU-19               [-1, 16, 16]               0
          Dropout-20               [-1, 16, 16]               0
           Conv1d-21               [-1, 16, 16]              48
  MyConv1dPadSame-22               [-1, 16, 16]               0
       Bottleneck-23               [-1, 16, 16]               0
      BatchNorm1d-24               [-1, 16, 16]              32
             ReLU-25               [-1, 16, 16]               0
          Dropout-26               [-1, 16, 16]               0
           Conv1d-27               [-1, 32, 16]              96
  MyConv1dPadSame-28               [-1, 32, 16]               0
      BatchNorm1d-29               [-1, 32, 16]              64
             ReLU-30               [-1, 32, 16]               0
          Dropout-31               [-1, 32, 16]               0
           Conv1d-32               [-1, 32, 16]             160
  MyConv1dPadSame-33               [-1, 32, 16]               0
       Bottleneck-34               [-1, 32, 16]               0
      BatchNorm1d-35               [-1, 32, 16]              64
             ReLU-36               [-1, 32, 16]               0
          Dropout-37               [-1, 32, 16]               0
           Conv1d-38               [-1, 32, 16]             160
  MyConv1dPadSame-39               [-1, 32, 16]               0
      BatchNorm1d-40               [-1, 32, 16]              64
             ReLU-41               [-1, 32, 16]               0
          Dropout-42               [-1, 32, 16]               0
           Conv1d-43               [-1, 32, 16]             160
  MyConv1dPadSame-44               [-1, 32, 16]               0
       Bottleneck-45               [-1, 32, 16]               0
      BatchNorm1d-46               [-1, 32, 16]              64
             ReLU-47               [-1, 32, 16]               0
          Dropout-48               [-1, 32, 16]               0
           Conv1d-49               [-1, 64, 16]             320
  MyConv1dPadSame-50               [-1, 64, 16]               0
      BatchNorm1d-51               [-1, 64, 16]             128
             ReLU-52               [-1, 64, 16]               0
          Dropout-53               [-1, 64, 16]               0
           Conv1d-54               [-1, 64, 16]             576
  MyConv1dPadSame-55               [-1, 64, 16]               0
       Bottleneck-56               [-1, 64, 16]               0
      BatchNorm1d-57               [-1, 64, 16]             128
             ReLU-58               [-1, 64, 16]               0
          Dropout-59               [-1, 64, 16]               0
           Conv1d-60               [-1, 64, 16]             576
  MyConv1dPadSame-61               [-1, 64, 16]               0
      BatchNorm1d-62               [-1, 64, 16]             128
             ReLU-63               [-1, 64, 16]               0
          Dropout-64               [-1, 64, 16]               0
           Conv1d-65               [-1, 64, 16]             576
  MyConv1dPadSame-66               [-1, 64, 16]               0
       Bottleneck-67               [-1, 64, 16]               0
      BatchNorm1d-68               [-1, 64, 16]             128
             ReLU-69               [-1, 64, 16]               0
          Dropout-70               [-1, 64, 16]               0
           Conv1d-71              [-1, 128, 16]           1,152
  MyConv1dPadSame-72              [-1, 128, 16]               0
      BatchNorm1d-73              [-1, 128, 16]             256
             ReLU-74              [-1, 128, 16]               0
          Dropout-75              [-1, 128, 16]               0
           Conv1d-76              [-1, 128, 16]           2,176
  MyConv1dPadSame-77              [-1, 128, 16]               0
       Bottleneck-78              [-1, 128, 16]               0
      BatchNorm1d-79              [-1, 128, 16]             256
             ReLU-80              [-1, 128, 16]               0
          Dropout-81              [-1, 128, 16]               0
           Conv1d-82              [-1, 128, 16]           2,176
  MyConv1dPadSame-83              [-1, 128, 16]               0
      BatchNorm1d-84              [-1, 128, 16]             256
             ReLU-85              [-1, 128, 16]               0
          Dropout-86              [-1, 128, 16]               0
           Conv1d-87              [-1, 128, 16]           2,176
  MyConv1dPadSame-88              [-1, 128, 16]               0
       Bottleneck-89              [-1, 128, 16]               0
      BatchNorm1d-90              [-1, 128, 16]             256
             ReLU-91              [-1, 128, 16]               0
           Linear-92                    [-1, 2]             258
================================================================
Total params: 12,754
Trainable params: 12,754
Non-trainable params: 0
----------------------------------------------------------------
Input size (MB): 0.00
Forward/backward pass size (MB): 0.64
Params size (MB): 0.05
Estimated Total Size (MB): 0.69
----------------------------------------------------------------




************************************************************
************************************************************
n_length: 16, base_filters: 16, kernel_size: 2, n_block: 16
************************************************************
************************************************************
(2000, 1, 16) Counter({1: 1000, 0: 1000})
(2000, 1, 16) Counter({1: 1000, 0: 1000})
----------------------------------------------------------------
        Layer (type)               Output Shape         Param #
================================================================
            Conv1d-1               [-1, 16, 16]              48
   MyConv1dPadSame-2               [-1, 16, 16]               0
       BatchNorm1d-3               [-1, 16, 16]              32
              ReLU-4               [-1, 16, 16]               0
            Conv1d-5               [-1, 16, 16]              48
   MyConv1dPadSame-6               [-1, 16, 16]               0
       BatchNorm1d-7               [-1, 16, 16]              32
              ReLU-8               [-1, 16, 16]               0
           Dropout-9               [-1, 16, 16]               0
           Conv1d-10               [-1, 16, 16]              48
  MyConv1dPadSame-11               [-1, 16, 16]               0
       Bottleneck-12               [-1, 16, 16]               0
      BatchNorm1d-13               [-1, 16, 16]              32
             ReLU-14               [-1, 16, 16]               0
          Dropout-15               [-1, 16, 16]               0
           Conv1d-16                [-1, 16, 8]              48
  MyConv1dPadSame-17                [-1, 16, 8]               0
      BatchNorm1d-18                [-1, 16, 8]              32
             ReLU-19                [-1, 16, 8]               0
          Dropout-20                [-1, 16, 8]               0
           Conv1d-21                [-1, 16, 8]              48
  MyConv1dPadSame-22                [-1, 16, 8]               0
        MaxPool1d-23                [-1, 16, 8]               0
MyMaxPool1dPadSame-24                [-1, 16, 8]               0
       Bottleneck-25                [-1, 16, 8]               0
      BatchNorm1d-26                [-1, 16, 8]              32
             ReLU-27                [-1, 16, 8]               0
          Dropout-28                [-1, 16, 8]               0
           Conv1d-29                [-1, 16, 8]              48
  MyConv1dPadSame-30                [-1, 16, 8]               0
      BatchNorm1d-31                [-1, 16, 8]              32
             ReLU-32                [-1, 16, 8]               0
          Dropout-33                [-1, 16, 8]               0
           Conv1d-34                [-1, 16, 8]              48
  MyConv1dPadSame-35                [-1, 16, 8]               0
       Bottleneck-36                [-1, 16, 8]               0
      BatchNorm1d-37                [-1, 16, 8]              32
             ReLU-38                [-1, 16, 8]               0
          Dropout-39                [-1, 16, 8]               0
           Conv1d-40                [-1, 16, 4]              48
  MyConv1dPadSame-41                [-1, 16, 4]               0
      BatchNorm1d-42                [-1, 16, 4]              32
             ReLU-43                [-1, 16, 4]               0
          Dropout-44                [-1, 16, 4]               0
           Conv1d-45                [-1, 16, 4]              48
  MyConv1dPadSame-46                [-1, 16, 4]               0
        MaxPool1d-47                [-1, 16, 4]               0
MyMaxPool1dPadSame-48                [-1, 16, 4]               0
       Bottleneck-49                [-1, 16, 4]               0
      BatchNorm1d-50                [-1, 16, 4]              32
             ReLU-51                [-1, 16, 4]               0
          Dropout-52                [-1, 16, 4]               0
           Conv1d-53                [-1, 32, 4]              96
  MyConv1dPadSame-54                [-1, 32, 4]               0
      BatchNorm1d-55                [-1, 32, 4]              64
             ReLU-56                [-1, 32, 4]               0
          Dropout-57                [-1, 32, 4]               0
           Conv1d-58                [-1, 32, 4]             160
  MyConv1dPadSame-59                [-1, 32, 4]               0
       Bottleneck-60                [-1, 32, 4]               0
      BatchNorm1d-61                [-1, 32, 4]              64
             ReLU-62                [-1, 32, 4]               0
          Dropout-63                [-1, 32, 4]               0
           Conv1d-64                [-1, 32, 2]             160
  MyConv1dPadSame-65                [-1, 32, 2]               0
      BatchNorm1d-66                [-1, 32, 2]              64
             ReLU-67                [-1, 32, 2]               0
          Dropout-68                [-1, 32, 2]               0
           Conv1d-69                [-1, 32, 2]             160
  MyConv1dPadSame-70                [-1, 32, 2]               0
        MaxPool1d-71                [-1, 32, 2]               0
MyMaxPool1dPadSame-72                [-1, 32, 2]               0
       Bottleneck-73                [-1, 32, 2]               0
      BatchNorm1d-74                [-1, 32, 2]              64
             ReLU-75                [-1, 32, 2]               0
          Dropout-76                [-1, 32, 2]               0
           Conv1d-77                [-1, 32, 2]             160
  MyConv1dPadSame-78                [-1, 32, 2]               0
      BatchNorm1d-79                [-1, 32, 2]              64
             ReLU-80                [-1, 32, 2]               0
          Dropout-81                [-1, 32, 2]               0
           Conv1d-82                [-1, 32, 2]             160
  MyConv1dPadSame-83                [-1, 32, 2]               0
       Bottleneck-84                [-1, 32, 2]               0
      BatchNorm1d-85                [-1, 32, 2]              64
             ReLU-86                [-1, 32, 2]               0
          Dropout-87                [-1, 32, 2]               0
           Conv1d-88                [-1, 32, 1]             160
  MyConv1dPadSame-89                [-1, 32, 1]               0
      BatchNorm1d-90                [-1, 32, 1]              64
             ReLU-91                [-1, 32, 1]               0
          Dropout-92                [-1, 32, 1]               0
           Conv1d-93                [-1, 32, 1]             160
  MyConv1dPadSame-94                [-1, 32, 1]               0
        MaxPool1d-95                [-1, 32, 1]               0
MyMaxPool1dPadSame-96                [-1, 32, 1]               0
       Bottleneck-97                [-1, 32, 1]               0
      BatchNorm1d-98                [-1, 32, 1]              64
             ReLU-99                [-1, 32, 1]               0
         Dropout-100                [-1, 32, 1]               0
          Conv1d-101                [-1, 64, 1]             320
 MyConv1dPadSame-102                [-1, 64, 1]               0
     BatchNorm1d-103                [-1, 64, 1]             128
            ReLU-104                [-1, 64, 1]               0
         Dropout-105                [-1, 64, 1]               0
          Conv1d-106                [-1, 64, 1]             576
 MyConv1dPadSame-107                [-1, 64, 1]               0
      Bottleneck-108                [-1, 64, 1]               0
     BatchNorm1d-109                [-1, 64, 1]             128
            ReLU-110                [-1, 64, 1]               0
         Dropout-111                [-1, 64, 1]               0
          Conv1d-112                [-1, 64, 1]             576
 MyConv1dPadSame-113                [-1, 64, 1]               0
     BatchNorm1d-114                [-1, 64, 1]             128
            ReLU-115                [-1, 64, 1]               0
         Dropout-116                [-1, 64, 1]               0
          Conv1d-117                [-1, 64, 1]             576
 MyConv1dPadSame-118                [-1, 64, 1]               0
       MaxPool1d-119                [-1, 64, 1]               0
MyMaxPool1dPadSame-120                [-1, 64, 1]               0
      Bottleneck-121                [-1, 64, 1]               0
     BatchNorm1d-122                [-1, 64, 1]             128
            ReLU-123                [-1, 64, 1]               0
         Dropout-124                [-1, 64, 1]               0
          Conv1d-125                [-1, 64, 1]             576
 MyConv1dPadSame-126                [-1, 64, 1]               0
     BatchNorm1d-127                [-1, 64, 1]             128
            ReLU-128                [-1, 64, 1]               0
         Dropout-129                [-1, 64, 1]               0
          Conv1d-130                [-1, 64, 1]             576
 MyConv1dPadSame-131                [-1, 64, 1]               0
      Bottleneck-132                [-1, 64, 1]               0
     BatchNorm1d-133                [-1, 64, 1]             128
            ReLU-134                [-1, 64, 1]               0
         Dropout-135                [-1, 64, 1]               0
          Conv1d-136                [-1, 64, 1]             576
 MyConv1dPadSame-137                [-1, 64, 1]               0
     BatchNorm1d-138                [-1, 64, 1]             128
            ReLU-139                [-1, 64, 1]               0
         Dropout-140                [-1, 64, 1]               0
          Conv1d-141                [-1, 64, 1]             576
 MyConv1dPadSame-142                [-1, 64, 1]               0
       MaxPool1d-143                [-1, 64, 1]               0
MyMaxPool1dPadSame-144                [-1, 64, 1]               0
      Bottleneck-145                [-1, 64, 1]               0
     BatchNorm1d-146                [-1, 64, 1]             128
            ReLU-147                [-1, 64, 1]               0
         Dropout-148                [-1, 64, 1]               0
          Conv1d-149               [-1, 128, 1]           1,152
 MyConv1dPadSame-150               [-1, 128, 1]               0
     BatchNorm1d-151               [-1, 128, 1]             256
            ReLU-152               [-1, 128, 1]               0
         Dropout-153               [-1, 128, 1]               0
          Conv1d-154               [-1, 128, 1]           2,176
 MyConv1dPadSame-155               [-1, 128, 1]               0
      Bottleneck-156               [-1, 128, 1]               0
     BatchNorm1d-157               [-1, 128, 1]             256
            ReLU-158               [-1, 128, 1]               0
         Dropout-159               [-1, 128, 1]               0
          Conv1d-160               [-1, 128, 1]           2,176
 MyConv1dPadSame-161               [-1, 128, 1]               0
     BatchNorm1d-162               [-1, 128, 1]             256
            ReLU-163               [-1, 128, 1]               0
         Dropout-164               [-1, 128, 1]               0
          Conv1d-165               [-1, 128, 1]           2,176
 MyConv1dPadSame-166               [-1, 128, 1]               0
       MaxPool1d-167               [-1, 128, 1]               0
MyMaxPool1dPadSame-168               [-1, 128, 1]               0
      Bottleneck-169               [-1, 128, 1]               0
     BatchNorm1d-170               [-1, 128, 1]             256
            ReLU-171               [-1, 128, 1]               0
         Dropout-172               [-1, 128, 1]               0
          Conv1d-173               [-1, 128, 1]           2,176
 MyConv1dPadSame-174               [-1, 128, 1]               0
     BatchNorm1d-175               [-1, 128, 1]             256
            ReLU-176               [-1, 128, 1]               0
         Dropout-177               [-1, 128, 1]               0
          Conv1d-178               [-1, 128, 1]           2,176
 MyConv1dPadSame-179               [-1, 128, 1]               0
      Bottleneck-180               [-1, 128, 1]               0
     BatchNorm1d-181               [-1, 128, 1]             256
            ReLU-182               [-1, 128, 1]               0
         Dropout-183               [-1, 128, 1]               0
          Conv1d-184               [-1, 128, 1]           2,176
 MyConv1dPadSame-185               [-1, 128, 1]               0
     BatchNorm1d-186               [-1, 128, 1]             256
            ReLU-187               [-1, 128, 1]               0
         Dropout-188               [-1, 128, 1]               0
          Conv1d-189               [-1, 128, 1]           2,176
 MyConv1dPadSame-190               [-1, 128, 1]               0
       MaxPool1d-191               [-1, 128, 1]               0
MyMaxPool1dPadSame-192               [-1, 128, 1]               0
      Bottleneck-193               [-1, 128, 1]               0
     BatchNorm1d-194               [-1, 128, 1]             256
            ReLU-195               [-1, 128, 1]               0
          Linear-196                    [-1, 2]             258
================================================================
Total params: 26,514
Trainable params: 26,514
Non-trainable params: 0
----------------------------------------------------------------
Input size (MB): 0.00
Forward/backward pass size (MB): 0.15
Params size (MB): 0.10
Estimated Total Size (MB): 0.26
----------------------------------------------------------------




************************************************************
************************************************************
n_length: 16, base_filters: 16, kernel_size: 4, n_block: 2
************************************************************
************************************************************
(2000, 1, 16) Counter({0: 1000, 1: 1000})
(2000, 1, 16) Counter({0: 1000, 1: 1000})
----------------------------------------------------------------
        Layer (type)               Output Shape         Param #
================================================================
            Conv1d-1               [-1, 16, 16]              80
   MyConv1dPadSame-2               [-1, 16, 16]               0
       BatchNorm1d-3               [-1, 16, 16]              32
              ReLU-4               [-1, 16, 16]               0
            Conv1d-5               [-1, 16, 16]              80
   MyConv1dPadSame-6               [-1, 16, 16]               0
       BatchNorm1d-7               [-1, 16, 16]              32
              ReLU-8               [-1, 16, 16]               0
           Dropout-9               [-1, 16, 16]               0
           Conv1d-10               [-1, 16, 16]              80
  MyConv1dPadSame-11               [-1, 16, 16]               0
       Bottleneck-12               [-1, 16, 16]               0
      BatchNorm1d-13               [-1, 16, 16]              32
             ReLU-14               [-1, 16, 16]               0
          Dropout-15               [-1, 16, 16]               0
           Conv1d-16               [-1, 32, 16]             160
  MyConv1dPadSame-17               [-1, 32, 16]               0
      BatchNorm1d-18               [-1, 32, 16]              64
             ReLU-19               [-1, 32, 16]               0
          Dropout-20               [-1, 32, 16]               0
           Conv1d-21               [-1, 32, 16]             288
  MyConv1dPadSame-22               [-1, 32, 16]               0
       Bottleneck-23               [-1, 32, 16]               0
      BatchNorm1d-24               [-1, 32, 16]              64
             ReLU-25               [-1, 32, 16]               0
           Linear-26                    [-1, 2]              66
================================================================
Total params: 978
Trainable params: 978
Non-trainable params: 0
----------------------------------------------------------------
Input size (MB): 0.00
Forward/backward pass size (MB): 0.07
Params size (MB): 0.00
Estimated Total Size (MB): 0.07
----------------------------------------------------------------




************************************************************
************************************************************
n_length: 16, base_filters: 16, kernel_size: 4, n_block: 4
************************************************************
************************************************************
(2000, 1, 16) Counter({1: 1000, 0: 1000})
(2000, 1, 16) Counter({0: 1000, 1: 1000})
----------------------------------------------------------------
        Layer (type)               Output Shape         Param #
================================================================
            Conv1d-1               [-1, 16, 16]              80
   MyConv1dPadSame-2               [-1, 16, 16]               0
       BatchNorm1d-3               [-1, 16, 16]              32
              ReLU-4               [-1, 16, 16]               0
            Conv1d-5               [-1, 16, 16]              80
   MyConv1dPadSame-6               [-1, 16, 16]               0
       BatchNorm1d-7               [-1, 16, 16]              32
              ReLU-8               [-1, 16, 16]               0
           Dropout-9               [-1, 16, 16]               0
           Conv1d-10               [-1, 16, 16]              80
  MyConv1dPadSame-11               [-1, 16, 16]               0
       Bottleneck-12               [-1, 16, 16]               0
      BatchNorm1d-13               [-1, 16, 16]              32
             ReLU-14               [-1, 16, 16]               0
          Dropout-15               [-1, 16, 16]               0
           Conv1d-16               [-1, 32, 16]             160
  MyConv1dPadSame-17               [-1, 32, 16]               0
      BatchNorm1d-18               [-1, 32, 16]              64
             ReLU-19               [-1, 32, 16]               0
          Dropout-20               [-1, 32, 16]               0
           Conv1d-21               [-1, 32, 16]             288
  MyConv1dPadSame-22               [-1, 32, 16]               0
       Bottleneck-23               [-1, 32, 16]               0
      BatchNorm1d-24               [-1, 32, 16]              64
             ReLU-25               [-1, 32, 16]               0
          Dropout-26               [-1, 32, 16]               0
           Conv1d-27               [-1, 64, 16]             576
  MyConv1dPadSame-28               [-1, 64, 16]               0
      BatchNorm1d-29               [-1, 64, 16]             128
             ReLU-30               [-1, 64, 16]               0
          Dropout-31               [-1, 64, 16]               0
           Conv1d-32               [-1, 64, 16]           1,088
  MyConv1dPadSame-33               [-1, 64, 16]               0
       Bottleneck-34               [-1, 64, 16]               0
      BatchNorm1d-35               [-1, 64, 16]             128
             ReLU-36               [-1, 64, 16]               0
          Dropout-37               [-1, 64, 16]               0
           Conv1d-38              [-1, 128, 16]           2,176
  MyConv1dPadSame-39              [-1, 128, 16]               0
      BatchNorm1d-40              [-1, 128, 16]             256
             ReLU-41              [-1, 128, 16]               0
          Dropout-42              [-1, 128, 16]               0
           Conv1d-43              [-1, 128, 16]           4,224
  MyConv1dPadSame-44              [-1, 128, 16]               0
       Bottleneck-45              [-1, 128, 16]               0
      BatchNorm1d-46              [-1, 128, 16]             256
             ReLU-47              [-1, 128, 16]               0
           Linear-48                    [-1, 2]             258
================================================================
Total params: 10,002
Trainable params: 10,002
Non-trainable params: 0
----------------------------------------------------------------
Input size (MB): 0.00
Forward/backward pass size (MB): 0.31
Params size (MB): 0.04
Estimated Total Size (MB): 0.35
----------------------------------------------------------------




************************************************************
************************************************************
n_length: 16, base_filters: 16, kernel_size: 4, n_block: 8
************************************************************
************************************************************
(2000, 1, 16) Counter({0: 1000, 1: 1000})
(2000, 1, 16) Counter({0: 1000, 1: 1000})
----------------------------------------------------------------
        Layer (type)               Output Shape         Param #
================================================================
            Conv1d-1               [-1, 16, 16]              80
   MyConv1dPadSame-2               [-1, 16, 16]               0
       BatchNorm1d-3               [-1, 16, 16]              32
              ReLU-4               [-1, 16, 16]               0
            Conv1d-5               [-1, 16, 16]              80
   MyConv1dPadSame-6               [-1, 16, 16]               0
       BatchNorm1d-7               [-1, 16, 16]              32
              ReLU-8               [-1, 16, 16]               0
           Dropout-9               [-1, 16, 16]               0
           Conv1d-10               [-1, 16, 16]              80
  MyConv1dPadSame-11               [-1, 16, 16]               0
       Bottleneck-12               [-1, 16, 16]               0
      BatchNorm1d-13               [-1, 16, 16]              32
             ReLU-14               [-1, 16, 16]               0
          Dropout-15               [-1, 16, 16]               0
           Conv1d-16               [-1, 16, 16]              80
  MyConv1dPadSame-17               [-1, 16, 16]               0
      BatchNorm1d-18               [-1, 16, 16]              32
             ReLU-19               [-1, 16, 16]               0
          Dropout-20               [-1, 16, 16]               0
           Conv1d-21               [-1, 16, 16]              80
  MyConv1dPadSame-22               [-1, 16, 16]               0
       Bottleneck-23               [-1, 16, 16]               0
      BatchNorm1d-24               [-1, 16, 16]              32
             ReLU-25               [-1, 16, 16]               0
          Dropout-26               [-1, 16, 16]               0
           Conv1d-27               [-1, 32, 16]             160
  MyConv1dPadSame-28               [-1, 32, 16]               0
      BatchNorm1d-29               [-1, 32, 16]              64
             ReLU-30               [-1, 32, 16]               0
          Dropout-31               [-1, 32, 16]               0
           Conv1d-32               [-1, 32, 16]             288
  MyConv1dPadSame-33               [-1, 32, 16]               0
       Bottleneck-34               [-1, 32, 16]               0
      BatchNorm1d-35               [-1, 32, 16]              64
             ReLU-36               [-1, 32, 16]               0
          Dropout-37               [-1, 32, 16]               0
           Conv1d-38               [-1, 32, 16]             288
  MyConv1dPadSame-39               [-1, 32, 16]               0
      BatchNorm1d-40               [-1, 32, 16]              64
             ReLU-41               [-1, 32, 16]               0
          Dropout-42               [-1, 32, 16]               0
           Conv1d-43               [-1, 32, 16]             288
  MyConv1dPadSame-44               [-1, 32, 16]               0
       Bottleneck-45               [-1, 32, 16]               0
      BatchNorm1d-46               [-1, 32, 16]              64
             ReLU-47               [-1, 32, 16]               0
          Dropout-48               [-1, 32, 16]               0
           Conv1d-49               [-1, 64, 16]             576
  MyConv1dPadSame-50               [-1, 64, 16]               0
      BatchNorm1d-51               [-1, 64, 16]             128
             ReLU-52               [-1, 64, 16]               0
          Dropout-53               [-1, 64, 16]               0
           Conv1d-54               [-1, 64, 16]           1,088
  MyConv1dPadSame-55               [-1, 64, 16]               0
       Bottleneck-56               [-1, 64, 16]               0
      BatchNorm1d-57               [-1, 64, 16]             128
             ReLU-58               [-1, 64, 16]               0
          Dropout-59               [-1, 64, 16]               0
           Conv1d-60               [-1, 64, 16]           1,088
  MyConv1dPadSame-61               [-1, 64, 16]               0
      BatchNorm1d-62               [-1, 64, 16]             128
             ReLU-63               [-1, 64, 16]               0
          Dropout-64               [-1, 64, 16]               0
           Conv1d-65               [-1, 64, 16]           1,088
  MyConv1dPadSame-66               [-1, 64, 16]               0
       Bottleneck-67               [-1, 64, 16]               0
      BatchNorm1d-68               [-1, 64, 16]             128
             ReLU-69               [-1, 64, 16]               0
          Dropout-70               [-1, 64, 16]               0
           Conv1d-71              [-1, 128, 16]           2,176
  MyConv1dPadSame-72              [-1, 128, 16]               0
      BatchNorm1d-73              [-1, 128, 16]             256
             ReLU-74              [-1, 128, 16]               0
          Dropout-75              [-1, 128, 16]               0
           Conv1d-76              [-1, 128, 16]           4,224
  MyConv1dPadSame-77              [-1, 128, 16]               0
       Bottleneck-78              [-1, 128, 16]               0
      BatchNorm1d-79              [-1, 128, 16]             256
             ReLU-80              [-1, 128, 16]               0
          Dropout-81              [-1, 128, 16]               0
           Conv1d-82              [-1, 128, 16]           4,224
  MyConv1dPadSame-83              [-1, 128, 16]               0
      BatchNorm1d-84              [-1, 128, 16]             256
             ReLU-85              [-1, 128, 16]               0
          Dropout-86              [-1, 128, 16]               0
           Conv1d-87              [-1, 128, 16]           4,224
  MyConv1dPadSame-88              [-1, 128, 16]               0
       Bottleneck-89              [-1, 128, 16]               0
      BatchNorm1d-90              [-1, 128, 16]             256
             ReLU-91              [-1, 128, 16]               0
           Linear-92                    [-1, 2]             258
================================================================
Total params: 22,322
Trainable params: 22,322
Non-trainable params: 0
----------------------------------------------------------------
Input size (MB): 0.00
Forward/backward pass size (MB): 0.64
Params size (MB): 0.09
Estimated Total Size (MB): 0.72
----------------------------------------------------------------




************************************************************
************************************************************
n_length: 16, base_filters: 16, kernel_size: 4, n_block: 16
************************************************************
************************************************************
(2000, 1, 16) Counter({0: 1000, 1: 1000})
(2000, 1, 16) Counter({1: 1000, 0: 1000})
----------------------------------------------------------------
        Layer (type)               Output Shape         Param #
================================================================
            Conv1d-1               [-1, 16, 16]              80
   MyConv1dPadSame-2               [-1, 16, 16]               0
       BatchNorm1d-3               [-1, 16, 16]              32
              ReLU-4               [-1, 16, 16]               0
            Conv1d-5               [-1, 16, 16]              80
   MyConv1dPadSame-6               [-1, 16, 16]               0
       BatchNorm1d-7               [-1, 16, 16]              32
              ReLU-8               [-1, 16, 16]               0
           Dropout-9               [-1, 16, 16]               0
           Conv1d-10               [-1, 16, 16]              80
  MyConv1dPadSame-11               [-1, 16, 16]               0
…
           Conv1d-16            [-1, 256, 4096]           2,304
  MyConv1dPadSame-17            [-1, 256, 4096]               0
      BatchNorm1d-18            [-1, 256, 4096]             512
             ReLU-19            [-1, 256, 4096]               0
          Dropout-20            [-1, 256, 4096]               0
           Conv1d-21            [-1, 256, 4096]           4,352
  MyConv1dPadSame-22            [-1, 256, 4096]               0
       Bottleneck-23            [-1, 256, 4096]               0
      BatchNorm1d-24            [-1, 256, 4096]             512
             ReLU-25            [-1, 256, 4096]               0
          Dropout-26            [-1, 256, 4096]               0
           Conv1d-27            [-1, 512, 4096]           8,704
  MyConv1dPadSame-28            [-1, 512, 4096]               0
      BatchNorm1d-29            [-1, 512, 4096]           1,024
             ReLU-30            [-1, 512, 4096]               0
          Dropout-31            [-1, 512, 4096]               0
           Conv1d-32            [-1, 512, 4096]          16,896
  MyConv1dPadSame-33            [-1, 512, 4096]               0
       Bottleneck-34            [-1, 512, 4096]               0
      BatchNorm1d-35            [-1, 512, 4096]           1,024
             ReLU-36            [-1, 512, 4096]               0
          Dropout-37            [-1, 512, 4096]               0
           Conv1d-38           [-1, 1024, 4096]          33,792
  MyConv1dPadSame-39           [-1, 1024, 4096]               0
      BatchNorm1d-40           [-1, 1024, 4096]           2,048
             ReLU-41           [-1, 1024, 4096]               0
          Dropout-42           [-1, 1024, 4096]               0
           Conv1d-43           [-1, 1024, 4096]          66,560
  MyConv1dPadSame-44           [-1, 1024, 4096]               0
       Bottleneck-45           [-1, 1024, 4096]               0
      BatchNorm1d-46           [-1, 1024, 4096]           2,048
             ReLU-47           [-1, 1024, 4096]               0
           Linear-48                    [-1, 2]           2,050
================================================================
Total params: 146,050
Trainable params: 146,050
Non-trainable params: 0
----------------------------------------------------------------
Input size (MB): 0.02
Forward/backward pass size (MB): 644.00
Params size (MB): 0.56
Estimated Total Size (MB): 644.57
----------------------------------------------------------------




************************************************************
************************************************************
n_length: 4096, base_filters: 128, kernel_size: 8, n_block: 8
************************************************************
************************************************************
(2000, 1, 4096) Counter({0: 1000, 1: 1000})
(2000, 1, 4096) Counter({1: 1000, 0: 1000})
----------------------------------------------------------------
        Layer (type)               Output Shape         Param #
================================================================
            Conv1d-1            [-1, 128, 4096]           1,152
   MyConv1dPadSame-2            [-1, 128, 4096]               0
       BatchNorm1d-3            [-1, 128, 4096]             256
              ReLU-4            [-1, 128, 4096]               0
            Conv1d-5            [-1, 128, 4096]           1,152
   MyConv1dPadSame-6            [-1, 128, 4096]               0
       BatchNorm1d-7            [-1, 128, 4096]             256
              ReLU-8            [-1, 128, 4096]               0
           Dropout-9            [-1, 128, 4096]               0
           Conv1d-10            [-1, 128, 4096]           1,152
  MyConv1dPadSame-11            [-1, 128, 4096]               0
       Bottleneck-12            [-1, 128, 4096]               0
      BatchNorm1d-13            [-1, 128, 4096]             256
             ReLU-14            [-1, 128, 4096]               0
          Dropout-15            [-1, 128, 4096]               0
           Conv1d-16            [-1, 128, 4096]           1,152
  MyConv1dPadSame-17            [-1, 128, 4096]               0
      BatchNorm1d-18            [-1, 128, 4096]             256
             ReLU-19            [-1, 128, 4096]               0
          Dropout-20            [-1, 128, 4096]               0
           Conv1d-21            [-1, 128, 4096]           1,152
  MyConv1dPadSame-22            [-1, 128, 4096]               0
       Bottleneck-23            [-1, 128, 4096]               0
      BatchNorm1d-24            [-1, 128, 4096]             256
             ReLU-25            [-1, 128, 4096]               0
          Dropout-26            [-1, 128, 4096]               0
           Conv1d-27            [-1, 256, 4096]           2,304
  MyConv1dPadSame-28            [-1, 256, 4096]               0
      BatchNorm1d-29            [-1, 256, 4096]             512
             ReLU-30            [-1, 256, 4096]               0
          Dropout-31            [-1, 256, 4096]               0
           Conv1d-32            [-1, 256, 4096]           4,352
  MyConv1dPadSame-33            [-1, 256, 4096]               0
       Bottleneck-34            [-1, 256, 4096]               0
      BatchNorm1d-35            [-1, 256, 4096]             512
             ReLU-36            [-1, 256, 4096]               0
          Dropout-37            [-1, 256, 4096]               0
           Conv1d-38            [-1, 256, 4096]           4,352
  MyConv1dPadSame-39            [-1, 256, 4096]               0
      BatchNorm1d-40            [-1, 256, 4096]             512
             ReLU-41            [-1, 256, 4096]               0
          Dropout-42            [-1, 256, 4096]               0
           Conv1d-43            [-1, 256, 4096]           4,352
  MyConv1dPadSame-44            [-1, 256, 4096]               0
       Bottleneck-45            [-1, 256, 4096]               0
      BatchNorm1d-46            [-1, 256, 4096]             512
             ReLU-47            [-1, 256, 4096]               0
          Dropout-48            [-1, 256, 4096]               0
           Conv1d-49            [-1, 512, 4096]           8,704
  MyConv1dPadSame-50            [-1, 512, 4096]               0
      BatchNorm1d-51            [-1, 512, 4096]           1,024
             ReLU-52            [-1, 512, 4096]               0
          Dropout-53            [-1, 512, 4096]               0
           Conv1d-54            [-1, 512, 4096]          16,896
  MyConv1dPadSame-55            [-1, 512, 4096]               0
       Bottleneck-56            [-1, 512, 4096]               0
      BatchNorm1d-57            [-1, 512, 4096]           1,024
             ReLU-58            [-1, 512, 4096]               0
          Dropout-59            [-1, 512, 4096]               0
           Conv1d-60            [-1, 512, 4096]          16,896
  MyConv1dPadSame-61            [-1, 512, 4096]               0
      BatchNorm1d-62            [-1, 512, 4096]           1,024
             ReLU-63            [-1, 512, 4096]               0
          Dropout-64            [-1, 512, 4096]               0
           Conv1d-65            [-1, 512, 4096]          16,896
  MyConv1dPadSame-66            [-1, 512, 4096]               0
       Bottleneck-67            [-1, 512, 4096]               0
      BatchNorm1d-68            [-1, 512, 4096]           1,024
             ReLU-69            [-1, 512, 4096]               0
          Dropout-70            [-1, 512, 4096]               0
           Conv1d-71           [-1, 1024, 4096]          33,792
  MyConv1dPadSame-72           [-1, 1024, 4096]               0
      BatchNorm1d-73           [-1, 1024, 4096]           2,048
             ReLU-74           [-1, 1024, 4096]               0
          Dropout-75           [-1, 1024, 4096]               0
           Conv1d-76           [-1, 1024, 4096]          66,560
  MyConv1dPadSame-77           [-1, 1024, 4096]               0
       Bottleneck-78           [-1, 1024, 4096]               0
      BatchNorm1d-79           [-1, 1024, 4096]           2,048
             ReLU-80           [-1, 1024, 4096]               0
          Dropout-81           [-1, 1024, 4096]               0
           Conv1d-82           [-1, 1024, 4096]          66,560
  MyConv1dPadSame-83           [-1, 1024, 4096]               0
      BatchNorm1d-84           [-1, 1024, 4096]           2,048
             ReLU-85           [-1, 1024, 4096]               0
          Dropout-86           [-1, 1024, 4096]               0
           Conv1d-87           [-1, 1024, 4096]          66,560
  MyConv1dPadSame-88           [-1, 1024, 4096]               0
       Bottleneck-89           [-1, 1024, 4096]               0
      BatchNorm1d-90           [-1, 1024, 4096]           2,048
             ReLU-91           [-1, 1024, 4096]               0
           Linear-92                    [-1, 2]           2,050
================================================================
Total params: 331,650
Trainable params: 331,650
Non-trainable params: 0
----------------------------------------------------------------
Input size (MB): 0.02
Forward/backward pass size (MB): 1304.00
Params size (MB): 1.27
Estimated Total Size (MB): 1305.28
----------------------------------------------------------------




************************************************************
************************************************************
n_length: 4096, base_filters: 128, kernel_size: 8, n_block: 16
************************************************************
************************************************************
(2000, 1, 4096) Counter({0: 1000, 1: 1000})
(2000, 1, 4096) Counter({1: 1000, 0: 1000})
----------------------------------------------------------------
        Layer (type)               Output Shape         Param #
================================================================
            Conv1d-1            [-1, 128, 4096]           1,152
   MyConv1dPadSame-2            [-1, 128, 4096]               0
       BatchNorm1d-3            [-1, 128, 4096]             256
              ReLU-4            [-1, 128, 4096]               0
            Conv1d-5            [-1, 128, 4096]           1,152
   MyConv1dPadSame-6            [-1, 128, 4096]               0
       BatchNorm1d-7            [-1, 128, 4096]             256
              ReLU-8            [-1, 128, 4096]               0
           Dropout-9            [-1, 128, 4096]               0
           Conv1d-10            [-1, 128, 4096]           1,152
  MyConv1dPadSame-11            [-1, 128, 4096]               0
       Bottleneck-12            [-1, 128, 4096]               0
      BatchNorm1d-13            [-1, 128, 4096]             256
             ReLU-14            [-1, 128, 4096]               0
          Dropout-15            [-1, 128, 4096]               0
           Conv1d-16            [-1, 128, 2048]           1,152
  MyConv1dPadSame-17            [-1, 128, 2048]               0
      BatchNorm1d-18            [-1, 128, 2048]             256
             ReLU-19            [-1, 128, 2048]               0
          Dropout-20            [-1, 128, 2048]               0
           Conv1d-21            [-1, 128, 2048]           1,152
  MyConv1dPadSame-22            [-1, 128, 2048]               0
        MaxPool1d-23            [-1, 128, 2048]               0
MyMaxPool1dPadSame-24            [-1, 128, 2048]               0
       Bottleneck-25            [-1, 128, 2048]               0
      BatchNorm1d-26            [-1, 128, 2048]             256
             ReLU-27            [-1, 128, 2048]               0
          Dropout-28            [-1, 128, 2048]               0
           Conv1d-29            [-1, 128, 2048]           1,152
  MyConv1dPadSame-30            [-1, 128, 2048]               0
      BatchNorm1d-31            [-1, 128, 2048]             256
             ReLU-32            [-1, 128, 2048]               0
          Dropout-33            [-1, 128, 2048]               0
           Conv1d-34            [-1, 128, 2048]           1,152
  MyConv1dPadSame-35            [-1, 128, 2048]               0
       Bottleneck-36            [-1, 128, 2048]               0
      BatchNorm1d-37            [-1, 128, 2048]             256
             ReLU-38            [-1, 128, 2048]               0
          Dropout-39            [-1, 128, 2048]               0
           Conv1d-40            [-1, 128, 1024]           1,152
  MyConv1dPadSame-41            [-1, 128, 1024]               0
      BatchNorm1d-42            [-1, 128, 1024]             256
             ReLU-43            [-1, 128, 1024]               0
          Dropout-44            [-1, 128, 1024]               0
           Conv1d-45            [-1, 128, 1024]           1,152
  MyConv1dPadSame-46            [-1, 128, 1024]               0
        MaxPool1d-47            [-1, 128, 1024]               0
MyMaxPool1dPadSame-48            [-1, 128, 1024]               0
       Bottleneck-49            [-1, 128, 1024]               0
      BatchNorm1d-50            [-1, 128, 1024]             256
             ReLU-51            [-1, 128, 1024]               0
          Dropout-52            [-1, 128, 1024]               0
           Conv1d-53            [-1, 256, 1024]           2,304
  MyConv1dPadSame-54            [-1, 256, 1024]               0
      BatchNorm1d-55            [-1, 256, 1024]             512
             ReLU-56            [-1, 256, 1024]               0
          Dropout-57            [-1, 256, 1024]               0
           Conv1d-58            [-1, 256, 1024]           4,352
  MyConv1dPadSame-59            [-1, 256, 1024]               0
       Bottleneck-60            [-1, 256, 1024]               0
      BatchNorm1d-61            [-1, 256, 1024]             512
             ReLU-62            [-1, 256, 1024]               0
          Dropout-63            [-1, 256, 1024]               0
           Conv1d-64             [-1, 256, 512]           4,352
  MyConv1dPadSame-65             [-1, 256, 512]               0
      BatchNorm1d-66             [-1, 256, 512]             512
             ReLU-67             [-1, 256, 512]               0
          Dropout-68             [-1, 256, 512]               0
           Conv1d-69             [-1, 256, 512]           4,352
  MyConv1dPadSame-70             [-1, 256, 512]               0
        MaxPool1d-71             [-1, 256, 512]               0
MyMaxPool1dPadSame-72             [-1, 256, 512]               0
       Bottleneck-73             [-1, 256, 512]               0
      BatchNorm1d-74             [-1, 256, 512]             512
             ReLU-75             [-1, 256, 512]               0
          Dropout-76             [-1, 256, 512]               0
           Conv1d-77             [-1, 256, 512]           4,352
  MyConv1dPadSame-78             [-1, 256, 512]               0
      BatchNorm1d-79             [-1, 256, 512]             512
             ReLU-80             [-1, 256, 512]               0
          Dropout-81             [-1, 256, 512]               0
           Conv1d-82             [-1, 256, 512]           4,352
  MyConv1dPadSame-83             [-1, 256, 512]               0
       Bottleneck-84             [-1, 256, 512]               0
      BatchNorm1d-85             [-1, 256, 512]             512
             ReLU-86             [-1, 256, 512]               0
          Dropout-87             [-1, 256, 512]               0
           Conv1d-88             [-1, 256, 256]           4,352
  MyConv1dPadSame-89             [-1, 256, 256]               0
      BatchNorm1d-90             [-1, 256, 256]             512
             ReLU-91             [-1, 256, 256]               0
          Dropout-92             [-1, 256, 256]               0
           Conv1d-93             [-1, 256, 256]           4,352
  MyConv1dPadSame-94             [-1, 256, 256]               0
        MaxPool1d-95             [-1, 256, 256]               0
MyMaxPool1dPadSame-96             [-1, 256, 256]               0
       Bottleneck-97             [-1, 256, 256]               0
      BatchNorm1d-98             [-1, 256, 256]             512
             ReLU-99             [-1, 256, 256]               0
         Dropout-100             [-1, 256, 256]               0
          Conv1d-101             [-1, 512, 256]           8,704
 MyConv1dPadSame-102             [-1, 512, 256]               0
     BatchNorm1d-103             [-1, 512, 256]           1,024
            ReLU-104             [-1, 512, 256]               0
         Dropout-105             [-1, 512, 256]               0
          Conv1d-106             [-1, 512, 256]          16,896
 MyConv1dPadSame-107             [-1, 512, 256]               0
      Bottleneck-108             [-1, 512, 256]               0
     BatchNorm1d-109             [-1, 512, 256]           1,024
            ReLU-110             [-1, 512, 256]               0
         Dropout-111             [-1, 512, 256]               0
          Conv1d-112             [-1, 512, 128]          16,896
 MyConv1dPadSame-113             [-1, 512, 128]               0
     BatchNorm1d-114             [-1, 512, 128]           1,024
            ReLU-115             [-1, 512, 128]               0
         Dropout-116             [-1, 512, 128]               0
          Conv1d-117             [-1, 512, 128]          16,896
 MyConv1dPadSame-118             [-1, 512, 128]               0
       MaxPool1d-119             [-1, 512, 128]               0
MyMaxPool1dPadSame-120             [-1, 512, 128]               0
      Bottleneck-121             [-1, 512, 128]               0
     BatchNorm1d-122             [-1, 512, 128]           1,024
            ReLU-123             [-1, 512, 128]               0
         Dropout-124             [-1, 512, 128]               0
          Conv1d-125             [-1, 512, 128]          16,896
 MyConv1dPadSame-126             [-1, 512, 128]               0
     BatchNorm1d-127             [-1, 512, 128]           1,024
            ReLU-128             [-1, 512, 128]               0
         Dropout-129             [-1, 512, 128]               0
          Conv1d-130             [-1, 512, 128]          16,896
 MyConv1dPadSame-131             [-1, 512, 128]               0
      Bottleneck-132             [-1, 512, 128]               0
     BatchNorm1d-133             [-1, 512, 128]           1,024
            ReLU-134             [-1, 512, 128]               0
         Dropout-135             [-1, 512, 128]               0
          Conv1d-136              [-1, 512, 64]          16,896
 MyConv1dPadSame-137              [-1, 512, 64]               0
     BatchNorm1d-138              [-1, 512, 64]           1,024
            ReLU-139              [-1, 512, 64]               0
         Dropout-140              [-1, 512, 64]               0
          Conv1d-141              [-1, 512, 64]          16,896
 MyConv1dPadSame-142              [-1, 512, 64]               0
       MaxPool1d-143              [-1, 512, 64]               0
MyMaxPool1dPadSame-144              [-1, 512, 64]               0
      Bottleneck-145              [-1, 512, 64]               0
     BatchNorm1d-146              [-1, 512, 64]           1,024
            ReLU-147              [-1, 512, 64]               0
         Dropout-148              [-1, 512, 64]               0
          Conv1d-149             [-1, 1024, 64]          33,792
 MyConv1dPadSame-150             [-1, 1024, 64]               0
     BatchNorm1d-151             [-1, 1024, 64]           2,048
            ReLU-152             [-1, 1024, 64]               0
         Dropout-153             [-1, 1024, 64]               0
          Conv1d-154             [-1, 1024, 64]          66,560
 MyConv1dPadSame-155             [-1, 1024, 64]               0
      Bottleneck-156             [-1, 1024, 64]               0
     BatchNorm1d-157             [-1, 1024, 64]           2,048
            ReLU-158             [-1, 1024, 64]               0
         Dropout-159             [-1, 1024, 64]               0
          Conv1d-160             [-1, 1024, 32]          66,560
 MyConv1dPadSame-161             [-1, 1024, 32]               0
     BatchNorm1d-162             [-1, 1024, 32]           2,048
            ReLU-163             [-1, 1024, 32]               0
         Dropout-164             [-1, 1024, 32]               0
          Conv1d-165             [-1, 1024, 32]          66,560
 MyConv1dPadSame-166             [-1, 1024, 32]               0
       MaxPool1d-167             [-1, 1024, 32]               0
MyMaxPool1dPadSame-168             [-1, 1024, 32]               0
      Bottleneck-169             [-1, 1024, 32]               0
     BatchNorm1d-170             [-1, 1024, 32]           2,048
            ReLU-171             [-1, 1024, 32]               0
         Dropout-172             [-1, 1024, 32]               0
          Conv1d-173             [-1, 1024, 32]          66,560
 MyConv1dPadSame-174             [-1, 1024, 32]               0
     BatchNorm1d-175             [-1, 1024, 32]           2,048
            ReLU-176             [-1, 1024, 32]               0
         Dropout-177             [-1, 1024, 32]               0
          Conv1d-178             [-1, 1024, 32]          66,560
 MyConv1dPadSame-179             [-1, 1024, 32]               0
      Bottleneck-180             [-1, 1024, 32]               0
     BatchNorm1d-181             [-1, 1024, 32]           2,048
            ReLU-182             [-1, 1024, 32]               0
         Dropout-183             [-1, 1024, 32]               0
          Conv1d-184             [-1, 1024, 16]          66,560
 MyConv1dPadSame-185             [-1, 1024, 16]               0
     BatchNorm1d-186             [-1, 1024, 16]           2,048
            ReLU-187             [-1, 1024, 16]               0
         Dropout-188             [-1, 1024, 16]               0
          Conv1d-189             [-1, 1024, 16]          66,560
 MyConv1dPadSame-190             [-1, 1024, 16]               0
       MaxPool1d-191             [-1, 1024, 16]               0
MyMaxPool1dPadSame-192             [-1, 1024, 16]               0
      Bottleneck-193             [-1, 1024, 16]               0
     BatchNorm1d-194             [-1, 1024, 16]           2,048
            ReLU-195             [-1, 1024, 16]               0
          Linear-196                    [-1, 2]           2,050
================================================================
Total params: 702,850
Trainable params: 702,850
Non-trainable params: 0
----------------------------------------------------------------
Input size (MB): 0.02
Forward/backward pass size (MB): 212.75
Params size (MB): 2.68
Estimated Total Size (MB): 215.45
----------------------------------------------------------------




************************************************************
************************************************************
n_length: 4096, base_filters: 128, kernel_size: 16, n_block: 2
************************************************************
************************************************************
(2000, 1, 4096) Counter({0: 1000, 1: 1000})
(2000, 1, 4096) Counter({1: 1000, 0: 1000})
----------------------------------------------------------------
        Layer (type)               Output Shape         Param #
================================================================
            Conv1d-1            [-1, 128, 4096]           2,176
   MyConv1dPadSame-2            [-1, 128, 4096]               0
       BatchNorm1d-3            [-1, 128, 4096]             256
              ReLU-4            [-1, 128, 4096]               0
            Conv1d-5            [-1, 128, 4096]           2,176
   MyConv1dPadSame-6            [-1, 128, 4096]               0
       BatchNorm1d-7            [-1, 128, 4096]             256
              ReLU-8            [-1, 128, 4096]               0
           Dropout-9            [-1, 128, 4096]               0
           Conv1d-10            [-1, 128, 4096]           2,176
  MyConv1dPadSame-11            [-1, 128, 4096]               0
       Bottleneck-12            [-1, 128, 4096]               0
      BatchNorm1d-13            [-1, 128, 4096]             256
             ReLU-14            [-1, 128, 4096]               0
          Dropout-15            [-1, 128, 4096]               0
           Conv1d-16            [-1, 256, 4096]           4,352
  MyConv1dPadSame-17            [-1, 256, 4096]               0
      BatchNorm1d-18            [-1, 256, 4096]             512
             ReLU-19            [-1, 256, 4096]               0
          Dropout-20            [-1, 256, 4096]               0
           Conv1d-21            [-1, 256, 4096]           8,448
  MyConv1dPadSame-22            [-1, 256, 4096]               0
       Bottleneck-23            [-1, 256, 4096]               0
      BatchNorm1d-24            [-1, 256, 4096]             512
             ReLU-25            [-1, 256, 4096]               0
           Linear-26                    [-1, 2]             514
================================================================
Total params: 21,634
Trainable params: 21,634
Non-trainable params: 0
----------------------------------------------------------------
Input size (MB): 0.02
Forward/backward pass size (MB): 140.00
Params size (MB): 0.08
Estimated Total Size (MB): 140.10
----------------------------------------------------------------




************************************************************
************************************************************
n_length: 4096, base_filters: 128, kernel_size: 16, n_block: 4
************************************************************
************************************************************
(2000, 1, 4096) Counter({1: 1000, 0: 1000})
(2000, 1, 4096) Counter({0: 1000, 1: 1000})
----------------------------------------------------------------
        Layer (type)               Output Shape         Param #
================================================================
            Conv1d-1            [-1, 128, 4096]           2,176
   MyConv1dPadSame-2            [-1, 128, 4096]               0
       BatchNorm1d-3            [-1, 128, 4096]             256
              ReLU-4            [-1, 128, 4096]               0
            Conv1d-5            [-1, 128, 4096]           2,176
   MyConv1dPadSame-6            [-1, 128, 4096]               0
       BatchNorm1d-7            [-1, 128, 4096]             256
              ReLU-8            [-1, 128, 4096]               0
           Dropout-9            [-1, 128, 4096]               0
           Conv1d-10            [-1, 128, 4096]           2,176
  MyConv1dPadSame-11            [-1, 128, 4096]               0
       Bottleneck-12            [-1, 128, 4096]               0
      BatchNorm1d-13            [-1, 128, 4096]             256
             ReLU-14            [-1, 128, 4096]               0
          Dropout-15            [-1, 128, 4096]               0
           Conv1d-16            [-1, 256, 4096]           4,352
  MyConv1dPadSame-17            [-1, 256, 4096]               0
      BatchNorm1d-18            [-1, 256, 4096]             512
             ReLU-19            [-1, 256, 4096]               0
          Dropout-20            [-1, 256, 4096]               0
           Conv1d-21            [-1, 256, 4096]           8,448
  MyConv1dPadSame-22            [-1, 256, 4096]               0
       Bottleneck-23            [-1, 256, 4096]               0
      BatchNorm1d-24            [-1, 256, 4096]             512
             ReLU-25            [-1, 256, 4096]               0
          Dropout-26            [-1, 256, 4096]               0
           Conv1d-27            [-1, 512, 4096]          16,896
  MyConv1dPadSame-28            [-1, 512, 4096]               0
      BatchNorm1d-29            [-1, 512, 4096]           1,024
             ReLU-30            [-1, 512, 4096]               0
          Dropout-31            [-1, 512, 4096]               0
           Conv1d-32            [-1, 512, 4096]          33,280
  MyConv1dPadSame-33            [-1, 512, 4096]               0
       Bottleneck-34            [-1, 512, 4096]               0
      BatchNorm1d-35            [-1, 512, 4096]           1,024
             ReLU-36            [-1, 512, 4096]               0
          Dropout-37            [-1, 512, 4096]               0
           Conv1d-38           [-1, 1024, 4096]          66,560
  MyConv1dPadSame-39           [-1, 1024, 4096]               0
      BatchNorm1d-40           [-1, 1024, 4096]           2,048
             ReLU-41           [-1, 1024, 4096]               0
          Dropout-42           [-1, 1024, 4096]               0
           Conv1d-43           [-1, 1024, 4096]         132,096
  MyConv1dPadSame-44           [-1, 1024, 4096]               0
       Bottleneck-45           [-1, 1024, 4096]               0
      BatchNorm1d-46           [-1, 1024, 4096]           2,048
             ReLU-47           [-1, 1024, 4096]               0
           Linear-48                    [-1, 2]           2,050
================================================================
Total params: 278,146
Trainable params: 278,146
Non-trainable params: 0
----------------------------------------------------------------
Input size (MB): 0.02
Forward/backward pass size (MB): 644.00
Params size (MB): 1.06
Estimated Total Size (MB): 645.08
----------------------------------------------------------------




************************************************************
************************************************************
n_length: 4096, base_filters: 128, kernel_size: 16, n_block: 8
************************************************************
************************************************************
(2000, 1, 4096) Counter({0: 1000, 1: 1000})
(2000, 1, 4096) Counter({1: 1000, 0: 1000})
----------------------------------------------------------------
        Layer (type)               Output Shape         Param #
================================================================
            Conv1d-1            [-1, 128, 4096]           2,176
   MyConv1dPadSame-2            [-1, 128, 4096]               0
       BatchNorm1d-3            [-1, 128, 4096]             256
              ReLU-4            [-1, 128, 4096]               0
            Conv1d-5            [-1, 128, 4096]           2,176
   MyConv1dPadSame-6            [-1, 128, 4096]               0
       BatchNorm1d-7            [-1, 128, 4096]             256
              ReLU-8            [-1, 128, 4096]               0
           Dropout-9            [-1, 128, 4096]               0
           Conv1d-10            [-1, 128, 4096]           2,176
  MyConv1dPadSame-11            [-1, 128, 4096]               0
       Bottleneck-12            [-1, 128, 4096]               0
      BatchNorm1d-13            [-1, 128, 4096]             256
             ReLU-14            [-1, 128, 4096]               0
          Dropout-15            [-1, 128, 4096]               0
           Conv1d-16            [-1, 128, 4096]           2,176
  MyConv1dPadSame-17            [-1, 128, 4096]               0
      BatchNorm1d-18            [-1, 128, 4096]             256
             ReLU-19            [-1, 128, 4096]               0
          Dropout-20            [-1, 128, 4096]               0
           Conv1d-21            [-1, 128, 4096]           2,176
  MyConv1dPadSame-22            [-1, 128, 4096]               0
       Bottleneck-23            [-1, 128, 4096]               0
      BatchNorm1d-24            [-1, 128, 4096]             256
             ReLU-25            [-1, 128, 4096]               0
          Dropout-26            [-1, 128, 4096]               0
           Conv1d-27            [-1, 256, 4096]           4,352
  MyConv1dPadSame-28            [-1, 256, 4096]               0
      BatchNorm1d-29            [-1, 256, 4096]             512
             ReLU-30            [-1, 256, 4096]               0
          Dropout-31            [-1, 256, 4096]               0
           Conv1d-32            [-1, 256, 4096]           8,448
  MyConv1dPadSame-33            [-1, 256, 4096]               0
       Bottleneck-34            [-1, 256, 4096]               0
      BatchNorm1d-35            [-1, 256, 4096]             512
             ReLU-36            [-1, 256, 4096]               0
          Dropout-37            [-1, 256, 4096]               0
           Conv1d-38            [-1, 256, 4096]           8,448
  MyConv1dPadSame-39            [-1, 256, 4096]               0
      BatchNorm1d-40            [-1, 256, 4096]             512
             ReLU-41            [-1, 256, 4096]               0
          Dropout-42            [-1, 256, 4096]               0
           Conv1d-43            [-1, 256, 4096]           8,448
  MyConv1dPadSame-44            [-1, 256, 4096]               0
       Bottleneck-45            [-1, 256, 4096]               0
      BatchNorm1d-46            [-1, 256, 4096]             512
             ReLU-47            [-1, 256, 4096]               0
          Dropout-48            [-1, 256, 4096]               0
           Conv1d-49            [-1, 512, 4096]          16,896
  MyConv1dPadSame-50            [-1, 512, 4096]               0
      BatchNorm1d-51            [-1, 512, 4096]           1,024
             ReLU-52            [-1, 512, 4096]               0
          Dropout-53            [-1, 512, 4096]               0
           Conv1d-54            [-1, 512, 4096]          33,280
  MyConv1dPadSame-55            [-1, 512, 4096]               0
       Bottleneck-56            [-1, 512, 4096]               0
      BatchNorm1d-57            [-1, 512, 4096]           1,024
             ReLU-58            [-1, 512, 4096]               0
          Dropout-59            [-1, 512, 4096]               0
           Conv1d-60            [-1, 512, 4096]          33,280
  MyConv1dPadSame-61            [-1, 512, 4096]               0
      BatchNorm1d-62            [-1, 512, 4096]           1,024
             ReLU-63            [-1, 512, 4096]               0
          Dropout-64            [-1, 512, 4096]               0
           Conv1d-65            [-1, 512, 4096]          33,280
  MyConv1dPadSame-66            [-1, 512, 4096]               0
       Bottleneck-67            [-1, 512, 4096]               0
      BatchNorm1d-68            [-1, 512, 4096]           1,024
             ReLU-69            [-1, 512, 4096]               0
          Dropout-70            [-1, 512, 4096]               0
           Conv1d-71           [-1, 1024, 4096]          66,560
  MyConv1dPadSame-72           [-1, 1024, 4096]               0
      BatchNorm1d-73           [-1, 1024, 4096]           2,048
             ReLU-74           [-1, 1024, 4096]               0
          Dropout-75           [-1, 1024, 4096]               0
           Conv1d-76           [-1, 1024, 4096]         132,096
  MyConv1dPadSame-77           [-1, 1024, 4096]               0
       Bottleneck-78           [-1, 1024, 4096]               0
      BatchNorm1d-79           [-1, 1024, 4096]           2,048
             ReLU-80           [-1, 1024, 4096]               0
          Dropout-81           [-1, 1024, 4096]               0
           Conv1d-82           [-1, 1024, 4096]         132,096
  MyConv1dPadSame-83           [-1, 1024, 4096]               0
      BatchNorm1d-84           [-1, 1024, 4096]           2,048
             ReLU-85           [-1, 1024, 4096]               0
          Dropout-86           [-1, 1024, 4096]               0
           Conv1d-87           [-1, 1024, 4096]         132,096
  MyConv1dPadSame-88           [-1, 1024, 4096]               0
       Bottleneck-89           [-1, 1024, 4096]               0
      BatchNorm1d-90           [-1, 1024, 4096]           2,048
             ReLU-91           [-1, 1024, 4096]               0
           Linear-92                    [-1, 2]           2,050
================================================================
Total params: 637,826
Trainable params: 637,826
Non-trainable params: 0
----------------------------------------------------------------
Input size (MB): 0.02
Forward/backward pass size (MB): 1304.00
Params size (MB): 2.43
Estimated Total Size (MB): 1306.45
----------------------------------------------------------------




************************************************************
************************************************************
n_length: 4096, base_filters: 128, kernel_size: 16, n_block: 16
************************************************************
************************************************************
(2000, 1, 4096) Counter({1: 1000, 0: 1000})
(2000, 1, 4096) Counter({1: 1000, 0: 1000})
----------------------------------------------------------------
        Layer (type)               Output Shape         Param #
================================================================
            Conv1d-1            [-1, 128, 4096]           2,176
   MyConv1dPadSame-2            [-1, 128, 4096]               0
       BatchNorm1d-3            [-1, 128, 4096]             256
              ReLU-4            [-1, 128, 4096]               0
            Conv1d-5            [-1, 128, 4096]           2,176
   MyConv1dPadSame-6            [-1, 128, 4096]               0
       BatchNorm1d-7            [-1, 128, 4096]             256
              ReLU-8            [-1, 128, 4096]               0
           Dropout-9            [-1, 128, 4096]               0
           Conv1d-10            [-1, 128, 4096]           2,176
  MyConv1dPadSame-11            [-1, 128, 4096]               0
       Bottleneck-12            [-1, 128, 4096]               0
      BatchNorm1d-13            [-1, 128, 4096]             256
             ReLU-14            [-1, 128, 4096]               0
          Dropout-15            [-1, 128, 4096]               0
           Conv1d-16            [-1, 128, 2048]           2,176
  MyConv1dPadSame-17            [-1, 128, 2048]               0
      BatchNorm1d-18            [-1, 128, 2048]             256
             ReLU-19            [-1, 128, 2048]               0
          Dropout-20            [-1, 128, 2048]               0
           Conv1d-21            [-1, 128, 2048]           2,176
  MyConv1dPadSame-22            [-1, 128, 2048]               0
        MaxPool1d-23            [-1, 128, 2048]               0
MyMaxPool1dPadSame-24            [-1, 128, 2048]               0
       Bottleneck-25            [-1, 128, 2048]               0
      BatchNorm1d-26            [-1, 128, 2048]             256
             ReLU-27            [-1, 128, 2048]               0
          Dropout-28            [-1, 128, 2048]               0
           Conv1d-29            [-1, 128, 2048]           2,176
  MyConv1dPadSame-30            [-1, 128, 2048]               0
      BatchNorm1d-31            [-1, 128, 2048]             256
             ReLU-32            [-1, 128, 2048]               0
          Dropout-33            [-1, 128, 2048]               0
           Conv1d-34            [-1, 128, 2048]           2,176
  MyConv1dPadSame-35            [-1, 128, 2048]               0
       Bottleneck-36            [-1, 128, 2048]               0
      BatchNorm1d-37            [-1, 128, 2048]             256
             ReLU-38            [-1, 128, 2048]               0
          Dropout-39            [-1, 128, 2048]               0
           Conv1d-40            [-1, 128, 1024]           2,176
  MyConv1dPadSame-41            [-1, 128, 1024]               0
      BatchNorm1d-42            [-1, 128, 1024]             256
             ReLU-43            [-1, 128, 1024]               0
          Dropout-44            [-1, 128, 1024]               0
           Conv1d-45            [-1, 128, 1024]           2,176
  MyConv1dPadSame-46            [-1, 128, 1024]               0
        MaxPool1d-47            [-1, 128, 1024]               0
MyMaxPool1dPadSame-48            [-1, 128, 1024]               0
       Bottleneck-49            [-1, 128, 1024]               0
      BatchNorm1d-50            [-1, 128, 1024]             256
             ReLU-51            [-1, 128, 1024]               0
          Dropout-52            [-1, 128, 1024]               0
           Conv1d-53            [-1, 256, 1024]           4,352
  MyConv1dPadSame-54            [-1, 256, 1024]               0
      BatchNorm1d-55            [-1, 256, 1024]             512
             ReLU-56            [-1, 256, 1024]               0
          Dropout-57            [-1, 256, 1024]               0
           Conv1d-58            [-1, 256, 1024]           8,448
  MyConv1dPadSame-59            [-1, 256, 1024]               0
       Bottleneck-60            [-1, 256, 1024]               0
      BatchNorm1d-61            [-1, 256, 1024]             512
             ReLU-62            [-1, 256, 1024]               0
          Dropout-63            [-1, 256, 1024]               0
           Conv1d-64             [-1, 256, 512]           8,448
  MyConv1dPadSame-65             [-1, 256, 512]               0
      BatchNorm1d-66             [-1, 256, 512]             512
             ReLU-67             [-1, 256, 512]               0
          Dropout-68             [-1, 256, 512]               0
           Conv1d-69             [-1, 256, 512]           8,448
  MyConv1dPadSame-70             [-1, 256, 512]               0
        MaxPool1d-71             [-1, 256, 512]               0
MyMaxPool1dPadSame-72             [-1, 256, 512]               0
       Bottleneck-73             [-1, 256, 512]               0
      BatchNorm1d-74             [-1, 256, 512]             512
             ReLU-75             [-1, 256, 512]               0
          Dropout-76             [-1, 256, 512]               0
           Conv1d-77             [-1, 256, 512]           8,448
  MyConv1dPadSame-78             [-1, 256, 512]               0
      BatchNorm1d-79             [-1, 256, 512]             512
             ReLU-80             [-1, 256, 512]               0
          Dropout-81             [-1, 256, 512]               0
           Conv1d-82             [-1, 256, 512]           8,448
  MyConv1dPadSame-83             [-1, 256, 512]               0
       Bottleneck-84             [-1, 256, 512]               0
      BatchNorm1d-85             [-1, 256, 512]             512
             ReLU-86             [-1, 256, 512]               0
          Dropout-87             [-1, 256, 512]               0
           Conv1d-88             [-1, 256, 256]           8,448
  MyConv1dPadSame-89             [-1, 256, 256]               0
      BatchNorm1d-90             [-1, 256, 256]             512
             ReLU-91             [-1, 256, 256]               0
          Dropout-92             [-1, 256, 256]               0
           Conv1d-93             [-1, 256, 256]           8,448
  MyConv1dPadSame-94             [-1, 256, 256]               0
        MaxPool1d-95             [-1, 256, 256]               0
MyMaxPool1dPadSame-96             [-1, 256, 256]               0
       Bottleneck-97             [-1, 256, 256]               0
      BatchNorm1d-98             [-1, 256, 256]             512
             ReLU-99             [-1, 256, 256]               0
         Dropout-100             [-1, 256, 256]               0
          Conv1d-101             [-1, 512, 256]          16,896
 MyConv1dPadSame-102             [-1, 512, 256]               0
     BatchNorm1d-103             [-1, 512, 256]           1,024
            ReLU-104             [-1, 512, 256]               0
         Dropout-105             [-1, 512, 256]               0
          Conv1d-106             [-1, 512, 256]          33,280
 MyConv1dPadSame-107             [-1, 512, 256]               0
      Bottleneck-108             [-1, 512, 256]               0
     BatchNorm1d-109             [-1, 512, 256]           1,024
            ReLU-110             [-1, 512, 256]               0
         Dropout-111             [-1, 512, 256]               0
          Conv1d-112             [-1, 512, 128]          33,280
 MyConv1dPadSame-113             [-1, 512, 128]               0
     BatchNorm1d-114             [-1, 512, 128]           1,024
            ReLU-115             [-1, 512, 128]               0
         Dropout-116             [-1, 512, 128]               0
          Conv1d-117             [-1, 512, 128]          33,280
 MyConv1dPadSame-118             [-1, 512, 128]               0
       MaxPool1d-119             [-1, 512, 128]               0
MyMaxPool1dPadSame-120             [-1, 512, 128]               0
      Bottleneck-121             [-1, 512, 128]               0
     BatchNorm1d-122             [-1, 512, 128]           1,024
            ReLU-123             [-1, 512, 128]               0
         Dropout-124             [-1, 512, 128]               0
          Conv1d-125             [-1, 512, 128]          33,280
 MyConv1dPadSame-126             [-1, 512, 128]               0
     BatchNorm1d-127             [-1, 512, 128]           1,024
            ReLU-128             [-1, 512, 128]               0
         Dropout-129             [-1, 512, 128]               0
          Conv1d-130             [-1, 512, 128]          33,280
 MyConv1dPadSame-131             [-1, 512, 128]               0
      Bottleneck-132             [-1, 512, 128]               0
     BatchNorm1d-133             [-1, 512, 128]           1,024
            ReLU-134             [-1, 512, 128]               0
         Dropout-135             [-1, 512, 128]               0
          Conv1d-136              [-1, 512, 64]          33,280
 MyConv1dPadSame-137              [-1, 512, 64]               0
     BatchNorm1d-138              [-1, 512, 64]           1,024
            ReLU-139              [-1, 512, 64]               0
         Dropout-140              [-1, 512, 64]               0
          Conv1d-141              [-1, 512, 64]          33,280
 MyConv1dPadSame-142              [-1, 512, 64]               0
       MaxPool1d-143              [-1, 512, 64]               0
MyMaxPool1dPadSame-144              [-1, 512, 64]               0
      Bottleneck-145              [-1, 512, 64]               0
     BatchNorm1d-146              [-1, 512, 64]           1,024
            ReLU-147              [-1, 512, 64]               0
         Dropout-148              [-1, 512, 64]               0
          Conv1d-149             [-1, 1024, 64]          66,560
 MyConv1dPadSame-150             [-1, 1024, 64]               0
     BatchNorm1d-151             [-1, 1024, 64]           2,048
            ReLU-152             [-1, 1024, 64]               0
         Dropout-153             [-1, 1024, 64]               0
          Conv1d-154             [-1, 1024, 64]         132,096
 MyConv1dPadSame-155             [-1, 1024, 64]               0
      Bottleneck-156             [-1, 1024, 64]               0
     BatchNorm1d-157             [-1, 1024, 64]           2,048
            ReLU-158             [-1, 1024, 64]               0
         Dropout-159             [-1, 1024, 64]               0
          Conv1d-160             [-1, 1024, 32]         132,096
 MyConv1dPadSame-161             [-1, 1024, 32]               0
     BatchNorm1d-162             [-1, 1024, 32]           2,048
            ReLU-163             [-1, 1024, 32]               0
         Dropout-164             [-1, 1024, 32]               0
          Conv1d-165             [-1, 1024, 32]         132,096
 MyConv1dPadSame-166             [-1, 1024, 32]               0
       MaxPool1d-167             [-1, 1024, 32]               0
MyMaxPool1dPadSame-168             [-1, 1024, 32]               0
      Bottleneck-169             [-1, 1024, 32]               0
     BatchNorm1d-170             [-1, 1024, 32]           2,048
            ReLU-171             [-1, 1024, 32]               0
         Dropout-172             [-1, 1024, 32]               0
          Conv1d-173             [-1, 1024, 32]         132,096
 MyConv1dPadSame-174             [-1, 1024, 32]               0
     BatchNorm1d-175             [-1, 1024, 32]           2,048
            ReLU-176             [-1, 1024, 32]               0
         Dropout-177             [-1, 1024, 32]               0
          Conv1d-178             [-1, 1024, 32]         132,096
 MyConv1dPadSame-179             [-1, 1024, 32]               0
      Bottleneck-180             [-1, 1024, 32]               0
     BatchNorm1d-181             [-1, 1024, 32]           2,048
            ReLU-182             [-1, 1024, 32]               0
         Dropout-183             [-1, 1024, 32]               0
          Conv1d-184             [-1, 1024, 16]         132,096
 MyConv1dPadSame-185             [-1, 1024, 16]               0
     BatchNorm1d-186             [-1, 1024, 16]           2,048
            ReLU-187             [-1, 1024, 16]               0
         Dropout-188             [-1, 1024, 16]               0
          Conv1d-189             [-1, 1024, 16]         132,096
 MyConv1dPadSame-190             [-1, 1024, 16]               0
       MaxPool1d-191             [-1, 1024, 16]               0
MyMaxPool1dPadSame-192             [-1, 1024, 16]               0
      Bottleneck-193             [-1, 1024, 16]               0
     BatchNorm1d-194             [-1, 1024, 16]           2,048
            ReLU-195             [-1, 1024, 16]               0
          Linear-196                    [-1, 2]           2,050
================================================================
Total params: 1,357,186
Trainable params: 1,357,186
Non-trainable params: 0
----------------------------------------------------------------
Input size (MB): 0.02
Forward/backward pass size (MB): 212.75
Params size (MB): 5.18
Estimated Total Size (MB): 217.94
----------------------------------------------------------------
